Model/VGGT_Accelerator/checkpoint.pth (torch, 108997 bytes, 17 tensors)

proj1.weight bf16 [32, 1024]
000000 9f 3c ee 3a 09 bc 90 bc 46 bb 0a 3d c7 bc 4f 3d
       0.01940918 0.0018157959 -0.008361816 -0.017578125 -0.0030212402 0.033691406 -0.024291992 0.05053711
000010 1e bd 90 3b dd 3c 9f ba f0 bb 2c bd fd bc 0a bd
       -0.03857422 0.0043945312 0.026977539 -0.0012130737 -0.0073242188 -0.041992188 -0.030883789 -0.033691406
000020 e1 bc b2 bb 4a 3d a4 b9 85 3d 05 3d 52 3d cd 39
       -0.02746582 -0.005432129 0.049316406 -0.00031280518 0.064941406 0.032470703 0.05126953 0.00039100647
000030 e1 bb 98 bc 8a bc e6 3c 4e bb 26 3c a4 3c 3f bb
       -0.006866455 -0.018554688 -0.016845703 0.028076172 -0.0031433105 0.010131836 0.020019531 -0.0029144287
000040 51 3c d2 bc c5 3b a7 3a 24 3b 73 bd c4 bc f1 bb
       0.012756348 -0.025634766 0.006011963 0.0012741089 0.0025024414 -0.059326172 -0.023925781 -0.0073547363
000050 09 bd f1 bc ea bc 85 bb e5 bc d5 bb 34 3c b5 3c
       -0.033447266 -0.029418945 -0.028564453 -0.004058838 -0.027954102 -0.006500244 0.010986328 0.022094727
000060 14 3c d3 bc ab bc 0e 3d b1 3b e9 3a 2a bc 15 bd
       0.009033203 -0.025756836 -0.020874023 0.03466797 0.0054016113 0.0017776489 -0.010375977 -0.036376953
000070 3b bd 00 bc b2 3b d2 bc ab 3c ed 3b 1b 3d 01 bc
       -0.045654297 -0.0078125 0.005432129 -0.025634766 0.020874023 0.007232666 0.037841797 -0.007873535
000080 d4 bc b8 bb 16 3d 05 bd b5 bc 83 ba 35 bb a7 3c
       -0.025878906 -0.0056152344 0.036621094 -0.032470703 -0.022094727 -0.0009994507 -0.0027618408 0.020385742
000090 47 3d ce 3c 5f 3d 25 3d 09 3d 03 3a 91 bc 34 3b
       0.048583984 0.025146484 0.05444336 0.040283203 0.033447266 0.00049972534 -0.017700195 0.002746582
0000a0 15 bc cc 3c ec bc 4a bc d4 bc 14 bc 13 3d ae bc
       -0.009094238 0.024902344 -0.028808594 -0.012329102 -0.025878906 -0.009033203 0.035888672 -0.021240234
0000b0 17 3d 09 bd 77 bc 42 bd 51 bb 1b bd 38 3d 3c 3c
       0.036865234 -0.033447266 -0.015075684 -0.04736328 -0.003189087 -0.037841797 0.044921875 0.011474609
0000c0 78 3c ac 3c fe bc 91 bc 1d 3d 9b 3c 62 bc f7 3c
       0.015136719 0.020996094 -0.03100586 -0.017700195 0.038330078 0.018920898 -0.013793945 0.030151367
0000d0 f8 37 b2 3c 80 bd d4 3c a7 3d 44 bb a0 bc 1e 3d
       2.9563904e-05 0.021728516 -0.0625 0.025878906 0.08154297 -0.0029907227 -0.01953125 0.03857422
0000e0 37 3c cb bc 21 bd e6 bc db 3c 53 3d 88 3c 01 3c
       0.011169434 -0.024780273 -0.03930664 -0.028076172 0.026733398 0.051513672 0.016601562 0.007873535
0000f0 1d 3d c2 bc 71 3c 9f bc 55 bd 49 bd 80 bd 25 3c
       0.038330078 -0.02368164 0.014709473 -0.01940918 -0.052001953 -0.049072266 -0.0625 0.010070801
000100 96 3c c6 3b b8 bc 8e ba b5 bc a0 39 bd bb 26 bd
       0.018310547 0.0060424805 -0.022460938 -0.001083374 -0.022094727 0.00030517578 -0.0057678223 -0.040527344
000110 45 3d 1a bb 4d 3b 04 3c 02 bd cc 3b 02 3c 0f bc
       0.048095703 -0.0023498535 0.0031280518 0.008056641 -0.03173828 0.006225586 0.00793457 -0.008728027
000120 01 3d 57 3b 35 3d 5d 3c 85 3d f3 bc 73 3c 11 bc
       0.03149414 0.0032806396 0.044189453 0.0134887695 0.064941406 -0.029663086 0.014831543 -0.008850098
000130 88 3a 00 bb c9 3c 50 bb 84 bc c1 bc a2 3a ce b9
       0.0010375977 -0.001953125 0.024536133 -0.0031738281 -0.016113281 -0.02355957 0.0012359619 -0.00039291382
000140 14 3c 90 bc 3f 3c 89 bc ee 3c 33 bc 1e bd b0 3c
       0.009033203 -0.017578125 0.011657715 -0.016723633 0.029052734 -0.010925293 -0.03857422 0.021484375
000150 6a 3c b3 3c 98 3c 1c 3d cb bc c4 3c 60 3d 88 bb
       0.014282227 0.021850586 0.018554688 0.038085938 -0.024780273 0.023925781 0.0546875 -0.0041503906
000160 1f bd 2e bd be bc d1 bb a0 3b 0e 3d 8b bc 8f 3c
       -0.03881836 -0.04248047 -0.02319336 -0.006378174 0.0048828125 0.03466797 -0.016967773 0.017456055
000170 f4 3b 5c 3c 74 3d 86 bc 10 bd 0d bd 8e bc 9f 3c
       0.007446289 0.013427734 0.059570312 -0.016357422 -0.03515625 -0.034423828 -0.017333984 0.01940918
000180 1a 3c c7 3c 1d bd 30 3d ef bc 15 3b 60 b9 a1 bb
       0.009399414 0.024291992 -0.038330078 0.04296875 -0.029174805 0.0022735596 -0.00021362305 -0.00491333
000190 05 3d 07 3c d7 3c 2a bd ed bc da 3b 1d 3c 24 bd
       0.032470703 0.008239746 0.026245117 -0.041503906 -0.028930664 0.006652832 0.0095825195 -0.040039062
0001a0 1c 3d 1a bd 49 bd a9 bb 88 bc 86 3c 62 bc d2 3c
       0.038085938 -0.037597656 -0.049072266 -0.0051574707 -0.016601562 0.016357422 -0.013793945 0.025634766
0001b0 96 bc 02 3d 2b bc 43 3c 81 3c ee 3b e2 3c 06 bc
       -0.018310547 0.03173828 -0.010437012 0.0119018555 0.01574707 0.0072631836 0.02758789 -0.008178711
0001c0 d1 bc 2b 3d 3d bd aa 3a b1 3c 21 3c a5 bc 1e 3c
       -0.025512695 0.041748047 -0.046142578 0.0012969971 0.021606445 0.00982666 -0.020141602 0.009643555
0001d0 72 bc 44 3c 4a bc 31 3c 81 3c 0f 3d b0 3c f0 bc
       -0.014770508 0.011962891 -0.012329102 0.010803223 0.01574707 0.03491211 0.021484375 -0.029296875
0001e0 a9 3b 6e 3b 28 3d 32 bd 7b 3c 80 bd 39 3c 5c bb
       0.0051574707 0.0036315918 0.041015625 -0.04345703 0.015319824 -0.0625 0.011291504 -0.0033569336
0001f0 45 3c 9a bc d5 bc e3 3c 78 3c 90 b9 31 3c 47 bc
       0.012023926 -0.018798828 -0.026000977 0.027709961 0.015136719 -0.0002746582 0.010803223 -0.012145996

proj1.bias bf16 [32]
000000 20 bd a2 3c 5a 3c 8c 3c 19 bc 89 bc e1 bb 53 3c
       -0.0390625 0.01977539 0.013305664 0.017089844 -0.009338379 -0.016723633 -0.006866455 0.012878418
000010 3d bd f4 3c a5 bc 04 3c d0 3c 1b bc 21 3d cc bc
       -0.046142578 0.029785156 -0.020141602 0.008056641 0.025390625 -0.009460449 0.03930664 -0.024902344
000020 ef bc d6 bc ae 3b 69 3b 4f bc 35 3c 73 3c 1d 3d
       -0.029174805 -0.026123047 0.0053100586 0.0035552979 -0.012634277 0.011047363 0.014831543 0.038330078
000030 44 bd 3b 3c 64 3c 20 bb c2 bc c8 3b 23 bc 64 bb
       -0.047851562 0.011413574 0.013916016 -0.0024414062 -0.02368164 0.0061035156 -0.0099487305 -0.003479004

block.norm1.weight bf16 [32]
000000 80 3f 80 3f 80 3f 80 3f 80 3f 80 3f 80 3f 80 3f
       1.0 1.0 1.0 1.0 1.0 1.0 1.0 1.0
000010 80 3f 80 3f 80 3f 80 3f 80 3f 80 3f 80 3f 80 3f
       1.0 1.0 1.0 1.0 1.0 1.0 1.0 1.0
000020 80 3f 80 3f 80 3f 80 3f 80 3f 80 3f 80 3f 80 3f
       1.0 1.0 1.0 1.0 1.0 1.0 1.0 1.0
000030 80 3f 80 3f 80 3f 80 3f 80 3f 80 3f 80 3f 80 3f
       1.0 1.0 1.0 1.0 1.0 1.0 1.0 1.0

block.norm1.bias bf16 [32]
000000 ad bc 0b 3c 8c bc d1 3c b3 3a 34 bb c6 39 dc 3b
       -0.021118164 0.008483887 -0.017089844 0.025512695 0.0013656616 -0.002746582 0.00037765503 0.006713867
000010 89 3c d0 3b a6 3c 5c 3d 00 3c c2 bc df 3c bf bc
       0.016723633 0.0063476562 0.020263672 0.053710938 0.0078125 -0.02368164 0.02722168 -0.02331543
000020 f2 bc 18 bd bf bc 08 3c 81 bb d6 b9 c5 bc 51 3c
       -0.029541016 -0.037109375 -0.02331543 0.008300781 -0.0039367676 -0.0004081726 -0.024047852 0.012756348
000030 82 3c 73 3c f9 bc 6b 3c 86 3a 19 3d db 3c d6 3c
       0.01586914 0.014831543 -0.030395508 0.014343262 0.0010223389 0.037353516 0.026733398 0.026123047

block.attn.qkv.weight bf16 [96, 32]
000000 32 be 25 be 90 bd 58 3d 04 be 10 bd b5 3d 15 3e
       -0.17382812 -0.16113281 -0.0703125 0.052734375 -0.12890625 -0.03515625 0.088378906 0.14550781
000010 00 be 03 3e df bd 13 bd e3 bc 9e 3d ce 3d 25 3e
       -0.125 0.12792969 -0.10888672 -0.035888672 -0.027709961 0.07714844 0.10058594 0.16113281
000020 e1 3d b9 3d 78 3d 37 be ba bc 35 3e d4 3d 1b 3e
       0.10986328 0.09033203 0.060546875 -0.17871094 -0.022705078 0.17675781 0.103515625 0.15136719
000030 b7 bd 43 be 92 3d 33 be db 3d af 3d 47 3d 0e be
       -0.08935547 -0.19042969 0.07128906 -0.17480469 0.106933594 0.08544922 0.048583984 -0.13867188
000040 c8 bd e5 bd 84 3d 9b bc b0 bd 1d 3e 57 3d f9 bd
       -0.09765625 -0.111816406 0.064453125 -0.018920898 -0.0859375 0.15332031 0.052490234 -0.12158203
000050 63 3a 47 3d 0a 3e 0e be 9f 3c 55 3e 81 be 36 3e
       0.0008659363 0.048583984 0.13476562 -0.13867188 0.01940918 0.20800781 -0.25195312 0.17773438
000060 28 bc 12 3e 66 3e be bd 80 be 00 3e 31 bd a5 bd
       -0.010253906 0.14257812 0.22460938 -0.09277344 -0.25 0.125 -0.04321289 -0.080566406
000070 42 3b 27 be a6 bd 00 3b 02 3e 15 3e 06 3e e0 bd
       0.002960205 -0.16308594 -0.08105469 0.001953125 0.12695312 0.14550781 0.13085938 -0.109375
000080 01 be a3 3d f7 3c d0 bc 18 3e be 39 6e bd 48 bd
       -0.12597656 0.079589844 0.030151367 -0.025390625 0.1484375 0.00036239624 -0.05810547 -0.048828125
000090 93 3c 3f bc 08 3e 51 bc 0a 3e 9e bd 50 3e a1 bb
       0.017944336 -0.011657715 0.1328125 -0.012756348 0.13476562 -0.07714844 0.203125 -0.00491333
0000a0 6d 3c 2c be ef bd 93 3d 00 3e 96 bd 3c 3e 86 bd
       0.014465332 -0.16796875 -0.11669922 0.071777344 0.125 -0.07324219 0.18359375 -0.06542969
0000b0 06 3e 65 3e 54 bd dd bc db 3d 78 3c 2d be 4d 3e
       0.13085938 0.22363281 -0.051757812 -0.026977539 0.106933594 0.015136719 -0.16894531 0.20019531
0000c0 b0 bd 0d 3e 1f 3e 8b bd 02 be 00 3d 09 3e c7 bd
       -0.0859375 0.13769531 0.15527344 -0.067871094 -0.12695312 0.03125 0.13378906 -0.09716797
0000d0 2e be b8 3c 0d be 67 3d 11 be fb bc 08 be 7e ba
       -0.16992188 0.022460938 -0.13769531 0.056396484 -0.14160156 -0.030639648 -0.1328125 -0.0009689331
0000e0 f9 bd 0d be 5f 3d 22 3e da bd 1f be eb 3d 1e 3e
       -0.12158203 -0.13769531 0.05444336 0.15820312 -0.10644531 -0.15527344 0.114746094 0.15429688
0000f0 97 bd 83 3c 28 3e fc 3d 0c 3d 9c bd 8f 3d 17 3e
       -0.07373047 0.015991211 0.1640625 0.123046875 0.034179688 -0.076171875 0.06982422 0.14746094
000100 5c 3e e4 bd da 3d fd bd 63 be aa 3d 1b bc 3a bd
       0.21484375 -0.111328125 0.10644531 -0.123535156 -0.22167969 0.08300781 -0.009460449 -0.045410156
000110 27 bc cd bd ad bd 82 3e 32 3d fd bc 23 3e 35 3d
       -0.010192871 -0.100097656 -0.084472656 0.25390625 0.04345703 -0.030883789 0.15917969 0.044189453
000120 28 bd 30 be 25 bd a8 bd 16 3e 7e be 10 be 58 be
       -0.041015625 -0.171875 -0.040283203 -0.08203125 0.14648438 -0.24804688 -0.140625 -0.2109375
000130 2c bc c2 3d 02 bd 40 3d b1 bc 5b be 11 bc 2c be
       -0.010498047 0.09472656 -0.03173828 0.046875 -0.021606445 -0.21386719 -0.008850098 -0.16796875
000140 93 bc 05 3e 14 be 0d be 90 bd b0 3d 16 3e c7 3d
       -0.017944336 0.12988281 -0.14453125 -0.13769531 -0.0703125 0.0859375 0.14648438 0.09716797
000150 46 bd 09 3e 36 bb 27 3d 31 be 2a be 2c be a8 3c
       -0.048339844 0.13378906 -0.0027770996 0.040771484 -0.17285156 -0.16601562 -0.16796875 0.020507812
000160 0b 3e 46 bd c3 bc af bb 17 be 21 3e c4 bd 12 3e
       0.13574219 -0.048339844 -0.023803711 -0.005340576 -0.14746094 0.15722656 -0.095703125 0.14257812
000170 ea bb 37 bd e3 bc b5 bd 0d 3e 29 be ca bd 3f be
       -0.0071411133 -0.044677734 -0.027709961 -0.088378906 0.13769531 -0.16503906 -0.09863281 -0.18652344
000180 07 bd b5 bd 35 be 06 be 67 bd 23 be fb bd 0b bd
       -0.032958984 -0.088378906 -0.17675781 -0.13085938 -0.056396484 -0.15917969 -0.122558594 -0.033935547
000190 e6 bd ba bd 86 bc 2b 3d 14 be 2c 3e 38 be 30 3e
       -0.11230469 -0.09082031 -0.016357422 0.041748047 -0.14453125 0.16796875 -0.1796875 0.171875
0001a0 0b bd c0 3d b2 bd b2 3d 3e bd 4f 3e d8 3d 08 3e
       -0.033935547 0.09375 -0.08691406 0.08691406 -0.04638672 0.20214844 0.10546875 0.1328125
0001b0 de bd 5b 3d 4f bc cf 3d 22 be 1e 3d 89 3c 09 3e
       -0.10839844 0.053466797 -0.012634277 0.10107422 -0.15820312 0.03857422 0.016723633 0.13378906
0001c0 f9 3c 18 3e e2 bd d7 3d 51 3e 0b 3e 16 be 03 3e
       0.030395508 0.1484375 -0.11035156 0.10498047 0.20410156 0.13574219 -0.14648438 0.12792969
0001d0 03 3d 44 bd bf 3c 47 3c 7c 3d 3b 3e f4 bd bd bc
       0.031982422 -0.047851562 0.02331543 0.012145996 0.061523438 0.18261719 -0.119140625 -0.023071289
0001e0 26 be 1b 3e 05 3e 01 be be 3d 41 3e d7 3d 07 be
       -0.16210938 0.15136719 0.12988281 -0.12597656 0.09277344 0.18847656 0.10498047 -0.13183594
0001f0 81 bd 31 be a8 3d 13 3e 21 be 9c bc ca 3d 23 3c
       -0.06298828 -0.17285156 0.08203125 0.14355469 -0.15722656 -0.019042969 0.09863281 0.0099487305

block.attn.qkv.bias bf16 [96]
000000 98 3d b9 3d 16 be 0a be d6 3d 1c 3e 86 bc 8e 3d
       0.07421875 0.09033203 -0.14648438 -0.13476562 0.10449219 0.15234375 -0.016357422 0.06933594
000010 ab bd 7a 3c 16 3d 2c be af 3d 00 3e 13 be e4 bd
       -0.083496094 0.015258789 0.036621094 -0.16796875 0.08544922 0.125 -0.14355469 -0.111328125
000020 de 3d 75 bb 04 3e a8 3d d2 3d 6e 3d 97 3d 82 bd
       0.10839844 -0.0037384033 0.12890625 0.08203125 0.10253906 0.05810547 0.07373047 -0.06347656
000030 30 3e c3 3d 54 bd 2a bb 32 bd 52 bc 4b 3e f0 3c
       0.171875 0.095214844 -0.051757812 -0.0025939941 -0.04345703 -0.012817383 0.19824219 0.029296875
000040 2f be 8e 3d 51 3e f8 3d e8 3d a0 bc 34 bc 29 be
       -0.17089844 0.06933594 0.20410156 0.12109375 0.11328125 -0.01953125 -0.010986328 -0.16503906
000050 de bd 1e 3e 39 3e f4 bd 03 be 03 3e 20 be 05 be
       -0.10839844 0.15429688 0.18066406 -0.119140625 -0.12792969 0.12792969 -0.15625 -0.12988281
000060 82 3d d9 3d 61 be 04 3e 0b 3e 1c 3d e1 3c 71 bd
       0.06347656 0.10595703 -0.21972656 0.12890625 0.13574219 0.038085938 0.02746582 -0.05883789
000070 6c 3d 87 bd 85 bd 32 3e ff bd 81 3d 9a bd 45 be
       0.057617188 -0.06591797 -0.064941406 0.17382812 -0.12451172 0.06298828 -0.07519531 -0.19238281
000080 34 be 2a be c5 bd 00 bd 9a bd b3 3c 07 be 5b bc
       -0.17578125 -0.16601562 -0.096191406 -0.03125 -0.07519531 0.021850586 -0.13183594 -0.013366699
000090 3b be 4a bd 21 3e e6 3b ff bd ad bb 0f 3d 11 3e
       -0.18261719 -0.049316406 0.15722656 0.007019043 -0.12451172 -0.005279541 0.03491211 0.14160156
0000a0 0b bd a0 3b f6 3d 30 3e 3c 3c d9 3d 00 bd 18 3e
       -0.033935547 0.0048828125 0.12011719 0.171875 0.011474609 0.10595703 -0.03125 0.1484375
0000b0 37 3e a1 bd 94 3d 22 be 09 3d 12 be 38 bd e0 3d
       0.17871094 -0.07861328 0.072265625 -0.15820312 0.033447266 -0.14257812 -0.044921875 0.109375

block.attn.proj.weight bf16 [32, 32]
000000 6e bd e6 bd 3e 3d b3 bc f5 bd 82 3d 00 be 0a 3e
       -0.05810547 -0.11230469 0.04638672 -0.021850586 -0.119628906 0.06347656 -0.125 0.13476562
000010 2a 3e 27 3e 01 be 9e 3d 39 3e 1c 3d f5 3d a4 bd
       0.16601562 0.16308594 -0.12597656 0.07714844 0.18066406 0.038085938 0.119628906 -0.080078125
000020 9f 3d 05 bd 40 bd f4 bd 00 be e3 3d 37 3e 47 bd
       0.07763672 -0.032470703 -0.046875 -0.119140625 -0.125 0.110839844 0.17871094 -0.048583984
000030 f1 bd 01 bd 0c be b8 3d ce bc 2f 3e 28 bd d3 bc
       -0.11767578 -0.03149414 -0.13671875 0.08984375 -0.025146484 0.17089844 -0.041015625 -0.025756836
000040 6e 3e 38 3e 4b bd 49 3e 28 3e ac bd a4 3d a6 bd
       0.23242188 0.1796875 -0.049560547 0.19628906 0.1640625 -0.083984375 0.080078125 -0.08105469
000050 e1 bd 42 bd f9 3d c4 bd 36 be dc 3d ba 3d 0c 3e
       -0.10986328 -0.04736328 0.12158203 -0.095703125 -0.17773438 0.107421875 0.09082031 0.13671875
000060 92 bd 0d be 8d 3c 6e be 36 3e 2e be 0d 3e 05 3e
       -0.07128906 -0.13769531 0.017211914 -0.23242188 0.17773438 -0.16992188 0.13769531 0.12988281
000070 ec bd 06 be c2 3c 14 be c0 3d 4e be 04 be 2e 3e
       -0.115234375 -0.13085938 0.02368164 -0.14453125 0.09375 -0.20117188 -0.12890625 0.16992188
000080 51 bd 12 be 08 bd 42 3e 05 be 32 3e 1a be d0 3d
       -0.05102539 -0.14257812 -0.033203125 0.18945312 -0.12988281 0.17382812 -0.15039062 0.1015625
000090 83 bd 69 bd 87 3d 34 be 16 3e 2a 3e 33 3c d9 bd
       -0.063964844 -0.056884766 0.06591797 -0.17578125 0.14648438 0.16601562 0.010925293 -0.10595703
0000a0 4c 3d df 3c 66 bd da 3d 20 be e6 3d b8 3d f1 3d
       0.049804688 0.02722168 -0.056152344 0.10644531 -0.15625 0.11230469 0.08984375 0.11767578
0000b0 59 3d 15 bd 0f 3d 0f be bf 3c 53 3d 15 be 63 bd
       0.052978516 -0.036376953 0.03491211 -0.13964844 0.02331543 0.051513672 -0.14550781 -0.055419922
0000c0 10 3d 6a bc 15 bc 73 bc 0a 3e 38 3d 32 3c 3c bd
       0.03515625 -0.014282227 -0.009094238 -0.014831543 0.13476562 0.044921875 0.010864258 -0.045898438
0000d0 1b bd 87 3d 36 3e d2 3c 23 3d 2a bd a9 3c 02 3e
       -0.037841797 0.06591797 0.17773438 0.025634766 0.039794922 -0.041503906 0.020629883 0.12695312
0000e0 38 be 36 3e 20 be 31 3d 0e 3e de 3d db bc 7a bd
       -0.1796875 0.17773438 -0.15625 0.04321289 0.13867188 0.10839844 -0.026733398 -0.061035156
0000f0 77 bd 35 3d 27 3d 9c 3d df 3d 85 bd 8e 3d 01 3e
       -0.060302734 0.044189453 0.040771484 0.076171875 0.10888672 -0.064941406 0.06933594 0.12597656
000100 05 3e 32 bd 07 3e 00 bc db bd cf 3c a8 bd 02 be
       0.12988281 -0.04345703 0.13183594 -0.0078125 -0.106933594 0.025268555 -0.08203125 -0.12695312
000110 2c be 5e 3d ae 3c 5c bd 0c bd 37 3e 0a 3e 8d 3d
       -0.16796875 0.05419922 0.021240234 -0.053710938 -0.034179688 0.17871094 0.13476562 0.068847656
000120 cd bc d9 3d 79 bd 64 be 08 be ee 3c 06 3e 68 be
       -0.025024414 0.10595703 -0.060791016 -0.22265625 -0.1328125 0.029052734 0.13085938 -0.2265625
000130 2e be 71 bd 63 3c f7 bc 34 3e 00 be 1f be 13 3e
       -0.16992188 -0.05883789 0.0138549805 -0.030151367 0.17578125 -0.125 -0.15527344 0.14355469
000140 30 be 2d be 5d bd 1e 3c fb 3d ce 3c be 3c 48 3e
       -0.171875 -0.16894531 -0.053955078 0.009643555 0.122558594 0.025146484 0.02319336 0.1953125
000150 0e be 45 be 84 3d c2 3c be bd ff bd 02 be 30 be
       -0.13867188 -0.19238281 0.064453125 0.02368164 -0.09277344 -0.12451172 -0.12695312 -0.171875
000160 f9 bd 00 be 2e 3e bd 3d e4 3d a5 3d 05 be d5 3d
       -0.12158203 -0.125 0.16992188 0.092285156 0.111328125 0.080566406 -0.12988281 0.104003906
000170 df bd 2b 3e 05 3e d8 3d 00 be 0d 3e a8 3d 24 be
       -0.10888672 0.16699219 0.12988281 0.10546875 -0.125 0.13769531 0.08203125 -0.16015625
000180 78 bd a3 3d 14 be 55 be 89 3d c4 bc f1 3c 85 3d
       -0.060546875 0.079589844 -0.14453125 -0.20800781 0.06689453 -0.023925781 0.029418945 0.064941406
000190 ea 3d 6f b9 52 bc 36 be 5a 3c 03 be 37 be 58 3d
       0.11425781 -0.00022792816 -0.012817383 -0.17773438 0.013305664 -0.12792969 -0.17871094 0.052734375
0001a0 2f be a2 bd 16 3d e6 3b 62 3d 08 3e 31 be 1e 3d
       -0.17089844 -0.07910156 0.036621094 0.007019043 0.05517578 0.1328125 -0.17285156 0.03857422
0001b0 41 bd 53 3d 9e 3d c0 3b e8 3c d7 3d 52 bc 64 bd
       -0.04711914 0.051513672 0.07714844 0.005859375 0.028320312 0.10498047 -0.012817383 -0.055664062
0001c0 17 be 13 3e b4 bd 17 be 3f 3e ac 3d 0c be be 3c
       -0.14746094 0.14355469 -0.087890625 -0.14746094 0.18652344 0.083984375 -0.13671875 0.02319336
0001d0 de bd 9a bd 00 3e 06 bd 4b bd 36 be e9 bb 31 3e
       -0.10839844 -0.07519531 0.125 -0.032714844 -0.049560547 -0.17773438 -0.0071105957 0.17285156
0001e0 90 bd 1b 3d 08 3e e4 bc 11 3e 11 be 2c 3b fd 3c
       -0.0703125 0.037841797 0.1328125 -0.027832031 0.14160156 -0.14160156 0.0026245117 0.030883789
0001f0 09 3c 04 3e 05 3e 01 3e 26 be c1 bd 36 3e 93 bd
       0.008361816 0.12890625 0.12988281 0.12597656 -0.16210938 -0.09423828 0.17773438 -0.071777344

block.attn.proj.bias bf16 [32]
000000 18 3b 1b be 98 bd b9 3d 2d be 2a 3e ce 3d d0 bd
       0.002319336 -0.15136719 -0.07421875 0.09033203 -0.16894531 0.16601562 0.10058594 -0.1015625
000010 69 bd 8b bd 09 3e 2f be 85 3d f2 bd 03 be 9f 3d
       -0.056884766 -0.067871094 0.13378906 -0.17089844 0.064941406 -0.11816406 -0.12792969 0.07763672
000020 b5 bd 33 3c 0f be 67 bb 11 3e 1f bd 31 3e 0c 3e
       -0.088378906 0.010925293 -0.13964844 -0.0035247803 0.14160156 -0.03881836 0.17285156 0.13671875
000030 98 bc e4 bd 9a 3d be 3d 07 be 69 3c 2d be 2e bd
       -0.018554688 -0.111328125 0.07519531 0.09277344 -0.13183594 0.014221191 -0.16894531 -0.04248047

block.norm2.weight bf16 [32]
000000 80 3f 80 3f 80 3f 80 3f 80 3f 80 3f 80 3f 80 3f
       1.0 1.0 1.0 1.0 1.0 1.0 1.0 1.0
000010 80 3f 80 3f 80 3f 80 3f 80 3f 80 3f 80 3f 80 3f
       1.0 1.0 1.0 1.0 1.0 1.0 1.0 1.0
000020 80 3f 80 3f 80 3f 80 3f 80 3f 80 3f 80 3f 80 3f
       1.0 1.0 1.0 1.0 1.0 1.0 1.0 1.0
000030 80 3f 80 3f 80 3f 80 3f 80 3f 80 3f 80 3f 80 3f
       1.0 1.0 1.0 1.0 1.0 1.0 1.0 1.0

block.norm2.bias bf16 [32]
000000 ed 3b 07 bc 2f 3c c9 39 47 ba 91 3c 27 3c d2 3c
       0.007232666 -0.008239746 0.010681152 0.00038337708 -0.00075912476 0.017700195 0.010192871 0.025634766
000010 ce 3b 4a bc 5f 3b 3b bc 86 3c 02 bb cb 3b a4 bb
       0.006286621 -0.012329102 0.00340271 -0.011413574 0.016357422 -0.0019836426 0.0061950684 -0.005004883
000020 ea 3b 1a 3c da 3b 26 bc c6 ba f5 bb cc 3b 80 bc
       0.0071411133 0.009399414 0.006652832 -0.010131836 -0.0015106201 -0.0074768066 0.006225586 -0.015625
000030 6d bc 90 bc 31 3c a5 3a a0 3c a9 ba be bb 75 bb
       -0.014465332 -0.017578125 0.010803223 0.0012588501 0.01953125 -0.0012893677 -0.00579834 -0.0037384033

block.mlp.fc1.weight bf16 [64, 32]
000000 7f 3d 7e 3d 2b 3e 90 3d 59 3e 33 be 1d 3d 86 bc
       0.06225586 0.06201172 0.16699219 0.0703125 0.21191406 -0.17480469 0.038330078 -0.016357422
000010 1c 3e 94 3d c7 3b ed 3d 37 be 32 be 0b 3e 3b 3e
       0.15234375 0.072265625 0.006072998 0.115722656 -0.17871094 -0.17382812 0.13574219 0.18261719
000020 64 bd 5b bc 07 be 00 3b 34 3d fa bd ea 3c ce bd
       -0.055664062 -0.013366699 -0.13183594 0.001953125 0.043945312 -0.12207031 0.028564453 -0.10058594
000030 1d be c8 bd a5 3c 9f bd 96 bc 0f bd f0 bd a1 3d
       -0.15332031 -0.09765625 0.020141602 -0.07763672 -0.018310547 -0.03491211 -0.1171875 0.07861328
000040 4c be 30 3e 00 be 24 bd c0 bd ea 3d 0e 3d e2 3d
       -0.19921875 0.171875 -0.125 -0.040039062 -0.09375 0.11425781 0.03466797 0.11035156
000050 02 3e 99 3c fe bd 55 3c 2d 3d f7 bd c9 bd 58 bd
       0.12695312 0.018676758 -0.12402344 0.013000488 0.042236328 -0.12060547 -0.09814453 -0.052734375
000060 63 3d 3c 3d fd bc f2 bd 9f 3d 12 3e cb 38 c3 bd
       0.055419922 0.045898438 -0.030883789 -0.11816406 0.07763672 0.14257812 9.679794e-05 -0.095214844
000070 fc bd 11 3c c8 3c 15 3e 05 bb 18 3e 36 3e 01 3e
       -0.123046875 0.008850098 0.024414062 0.14550781 -0.002029419 0.1484375 0.17773438 0.12597656
000080 cd 3d d2 bd 74 3c b4 3d 05 bc 62 3d de bd 17 be
       0.100097656 -0.10253906 0.014892578 0.087890625 -0.008117676 0.05517578 -0.10839844 -0.14746094
000090 a9 bd 3c be 27 3e 2a bd 04 3e 9b bd c3 3d 99 3d
       -0.08251953 -0.18359375 0.16308594 -0.041503906 0.12890625 -0.075683594 0.095214844 0.07470703
0000a0 02 3e ad bd b4 bc 07 be 25 3e b0 3d 38 bd c2 bd
       0.12695312 -0.084472656 -0.021972656 -0.13183594 0.16113281 0.0859375 -0.044921875 -0.09472656
0000b0 f8 3d 80 3d aa bd 26 3e c0 3d c7 3d 42 3c 0f be
       0.12109375 0.0625 -0.08300781 0.16210938 0.09375 0.09716797 0.01184082 -0.13964844
0000c0 fe 3d 0a 3e f0 bd a8 3d 00 be 15 be 16 bd 1b 3e
       0.12402344 0.13476562 -0.1171875 0.08203125 -0.125 -0.14550781 -0.036621094 0.15136719
0000d0 04 3e ed 3d 16 3d 80 bd 1e 3e 21 3d 08 3e 0e 3e
       0.12890625 0.115722656 0.036621094 -0.0625 0.15429688 0.03930664 0.1328125 0.13867188
0000e0 3b 3e ed 3d 08 3e 86 bc 5b bd b5 bd 88 bd d8 bd
       0.18261719 0.115722656 0.1328125 -0.016357422 -0.053466797 -0.088378906 -0.06640625 -0.10546875
0000f0 73 3d 3b bd 5c 3d 28 3d 0a 3e f0 3d c4 bc ac 3d
       0.059326172 -0.045654297 0.053710938 0.041015625 0.13476562 0.1171875 -0.023925781 0.083984375
000100 1b 3e 83 3d 85 bc 90 bd 22 3e 3a 3d 34 bb 1d bd
       0.15136719 0.063964844 -0.016235352 -0.0703125 0.15820312 0.045410156 -0.002746582 -0.038330078
000110 ee bd c0 3d e3 bd 85 3d 39 bd 10 be 37 be d2 bc
       -0.11621094 0.09375 -0.110839844 0.064941406 -0.045166016 -0.140625 -0.17871094 -0.025634766
000120 da bc 2d be 26 3d fc 3d bb 3c 12 3d 25 bd d5 bc
       -0.026611328 -0.16894531 0.040527344 0.123046875 0.022827148 0.03564453 -0.040283203 -0.026000977
000130 87 3c 30 be c3 3d 38 be e2 3b 17 bd 26 be 37 be
       0.016479492 -0.171875 0.095214844 -0.1796875 0.0068969727 -0.036865234 -0.16210938 -0.17871094
000140 d3 bc d6 bd 8d 3d a5 bd d2 3d 25 be 16 3e 30 be
       -0.025756836 -0.10449219 0.068847656 -0.080566406 0.10253906 -0.16113281 0.14648438 -0.171875
000150 36 3e 39 be 07 3e d9 bc d7 bd 75 3d ee 3d 12 3d
       0.17773438 -0.18066406 0.13183594 -0.026489258 -0.10498047 0.059814453 0.11621094 0.03564453
000160 17 3e 00 be d5 3c a2 bd 38 be 35 be b5 bd 18 bd
       0.14746094 -0.125 0.026000977 -0.07910156 -0.1796875 -0.17675781 -0.088378906 -0.037109375
000170 23 bd 59 bc 2a 3e ec 3d 41 bd 1c be f4 bd 9f bd
       -0.039794922 -0.013244629 0.16601562 0.115234375 -0.04711914 -0.15234375 -0.119140625 -0.07763672
000180 03 be 9d bd 9c 3d 0c 3e b0 bd ed 3d 2a 3e 33 be
       -0.12792969 -0.076660156 0.076171875 0.13671875 -0.0859375 0.115722656 0.16601562 -0.17480469
000190 9d bd b3 bc 0c 3d 55 3d f0 3c 82 bb 57 bd f5 3d
       -0.076660156 -0.021850586 0.034179688 0.052001953 0.029296875 -0.003967285 -0.052490234 0.119628906
0001a0 1c 3d a5 3d 2e 3e 32 3e 1b be 1d bd 29 3d 01 bd
       0.038085938 0.080566406 0.16992188 0.17382812 -0.15136719 -0.038330078 0.041259766 -0.03149414
0001b0 f6 bc 07 3e e9 3d 76 3d d9 3a 4e bd a0 bd 21 3e
       -0.030029297 0.13183594 0.11376953 0.060058594 0.0016555786 -0.05029297 -0.078125 0.15722656
0001c0 c9 bb 05 bc 25 3e 89 3d 98 bd 15 3e 66 3d 2c 3e
       -0.006134033 -0.008117676 0.16113281 0.06689453 -0.07421875 0.14550781 0.056152344 0.16796875
0001d0 2d be a8 bd e1 3d bd 3d 29 bc 6d bc ff bd bc 3d
       -0.16894531 -0.08203125 0.10986328 0.092285156 -0.010314941 -0.014465332 -0.12451172 0.091796875
0001e0 e7 3d 88 bd 03 3e 82 bc 1d 3e 00 be d6 3d d0 bd
       0.11279297 -0.06640625 0.12792969 -0.01586914 0.15332031 -0.125 0.10449219 -0.1015625
0001f0 a1 3d 41 bd 22 3e 14 be 91 3d 8e bd dd 3d 8d 3d
       0.07861328 -0.04711914 0.15820312 -0.14453125 0.07080078 -0.06933594 0.107910156 0.068847656

block.mlp.fc1.bias bf16 [64]
000000 69 3d d4 bb 23 be 83 3d e6 3d a8 3c d9 bd 2c 3e
       0.056884766 -0.0064697266 -0.15917969 0.063964844 0.11230469 0.020507812 -0.10595703 0.16796875
000010 17 be 45 3d 73 3d bf 3d f3 bd 23 be 68 bd 1d 3e
       -0.14746094 0.048095703 0.059326172 0.09326172 -0.118652344 -0.15917969 -0.056640625 0.15332031
000020 a2 bd 86 ba d2 bc 0b bd 00 3b 9a bd 92 3d 1f bd
       -0.07910156 -0.0010223389 -0.025634766 -0.033935547 0.001953125 -0.07519531 0.07128906 -0.03881836
000030 21 be 77 bd e1 3d bc 3c 0d be c4 3d 5c bd ab 3d
       -0.15722656 -0.060302734 0.10986328 0.022949219 -0.13769531 0.095703125 -0.053710938 0.083496094
000040 83 bd c5 3d 5b bd 1a be 7a 3d 2f 3c c3 bc 67 3d
       -0.063964844 0.096191406 -0.053466797 -0.15039062 0.061035156 0.010681152 -0.023803711 0.056396484
000050 24 bd 0b 3e 13 bd c8 3d df bd 82 bd 1c 3c bf 3d
       -0.040039062 0.13574219 -0.035888672 0.09765625 -0.10888672 -0.06347656 0.009521484 0.09326172
000060 b6 bd 0e 3e ac bd 8f 3b 10 3e a9 3d 40 be 19 3e
       -0.08886719 0.13867188 -0.083984375 0.0043640137 0.140625 0.08251953 -0.1875 0.14941406
000070 22 3c 23 3e da 3c 05 be 00 3d 65 3d f3 bc ea 3d
       0.009887695 0.15917969 0.026611328 -0.12988281 0.03125 0.055908203 -0.029663086 0.11425781

block.mlp.fc2.weight bf16 [32, 64]
000000 01 3e b6 3d 3b bb fa bd 15 ba ab bc ca bd 60 bb
       0.12597656 0.08886719 -0.0028533936 -0.12207031 -0.0005683899 -0.020874023 -0.09863281 -0.0034179688
000010 a3 3c 0b 3d fe bd 8d bd 0d bd 03 3e ab 3c e3 3d
       0.019897461 0.033935547 -0.12402344 -0.068847656 -0.034423828 0.12792969 0.020874023 0.110839844
000020 6c 3d 81 3c 4a bd d3 3d e9 3d ff 3d d0 bd d3 bb
       0.057617188 0.01574707 -0.049316406 0.103027344 0.11376953 0.12451172 -0.1015625 -0.006439209
000030 f2 bb 9b 3d 23 bd d4 bd 51 3b 54 bd 18 bd d4 bd
       -0.007385254 0.075683594 -0.039794922 -0.103515625 0.003189087 -0.051757812 -0.037109375 -0.103515625
000040 fd bd b6 3d 34 bd 99 3c c4 3d 91 bd 4a 3d 02 be
       -0.123535156 0.08886719 -0.043945312 0.018676758 0.095703125 -0.07080078 0.049316406 -0.12695312
000050 b4 3d e2 bd ac 3d 1e 3d 35 bd 63 3d 52 3c 4e bd
       0.087890625 -0.11035156 0.083984375 0.03857422 -0.044189453 0.055419922 0.012817383 -0.05029297
000060 58 3d 02 be 26 3b 0c 3d 94 bd 92 bd 2c 3d fb bd
       0.052734375 -0.12695312 0.002532959 0.034179688 -0.072265625 -0.07128906 0.041992188 -0.122558594
000070 d2 3d e6 bc 7b bd 70 bd b1 bd 03 3e 7b 3d 84 bc
       0.10253906 -0.028076172 -0.061279297 -0.05859375 -0.08642578 0.12792969 0.061279297 -0.016113281
000080 ff 3d 00 be 85 bd cf 3d 3b bc d8 3c e2 3a 62 3d
       0.12451172 -0.125 -0.064941406 0.10107422 -0.011413574 0.026367188 0.0017242432 0.05517578
000090 ed bd 61 3d 51 bd f2 bd bf bd 14 3d dc 3d ca 3d
       -0.115722656 0.05493164 -0.05102539 -0.11816406 -0.09326172 0.036132812 0.107421875 0.09863281
0000a0 f2 3d eb 3d c1 bd 94 3c da bd d1 bb af bd 4f bd
       0.11816406 0.114746094 -0.09423828 0.018066406 -0.10644531 -0.006378174 -0.08544922 -0.05053711
0000b0 6c bc 3c 3d 32 bd 8e 3d e3 3d 06 3b 99 3d d8 bd
       -0.014404297 0.045898438 -0.04345703 0.06933594 0.110839844 0.0020446777 0.07470703 -0.10546875
0000c0 86 3c 92 bb 99 3d 2e bc bf bc a8 bc ff 3c e0 3c
       0.016357422 -0.0044555664 0.07470703 -0.010620117 -0.02331543 -0.020507812 0.03112793 0.02734375
0000d0 29 3d 99 bd 91 3d 2b 3d b6 bd 85 3d 66 3d 36 3d
       0.041259766 -0.07470703 0.07080078 0.041748047 -0.08886719 0.064941406 0.056152344 0.044433594
0000e0 a5 bd e2 3b e1 3d 5c bd cb 3d 7c bd 39 3c 43 3c
       -0.080566406 0.0068969727 0.10986328 -0.053710938 0.099121094 -0.061523438 0.011291504 0.0119018555
0000f0 ac 3d 32 bc a4 bd 68 3d d4 3d dc bd 01 be b8 bd
       0.083984375 -0.010864258 -0.080078125 0.056640625 0.103515625 -0.107421875 -0.12597656 -0.08984375
000100 b7 bd bd 3d 79 bd 95 bd 56 bd a6 3d 9f bd 20 bd
       -0.08935547 0.092285156 -0.060791016 -0.072753906 -0.052246094 0.08105469 -0.07763672 -0.0390625
000110 f9 3d 7d bd 01 be 95 3d 85 3d 6b bd 32 bc b1 bd
       0.12158203 -0.061767578 -0.12597656 0.072753906 0.064941406 -0.057373047 -0.010864258 -0.08642578
000120 85 3b 96 bc f0 bd db 3d 86 3d 06 3d 9a bb 9b bd
       0.004058838 -0.018310547 -0.1171875 0.106933594 0.06542969 0.032714844 -0.004699707 -0.075683594
000130 fa bd d0 bd d2 3d 80 bd 22 bc d0 3d 22 3a 3f bd
       -0.12207031 -0.1015625 0.10253906 -0.0625 -0.009887695 0.1015625 0.00061798096 -0.04663086
000140 02 be 23 bd 98 bc c7 bc e8 3d a3 3c 85 3d 07 3e
       -0.12695312 -0.039794922 -0.018554688 -0.024291992 0.11328125 0.019897461 0.064941406 0.13183594
000150 79 3c 62 bd 1c bd 45 3d 0c bd 74 bd d4 3d ae 3d
       0.015197754 -0.05517578 -0.038085938 0.048095703 -0.034179688 -0.059570312 0.103515625 0.08496094
000160 e3 3c 04 3e 08 3a 74 bd 8f 3c 89 3d fc bb 4b bd
       0.027709961 0.12890625 0.0005187988 -0.059570312 0.017456055 0.06689453 -0.0076904297 -0.049560547
000170 d7 bd 60 3b ea bd 80 3a 2b bd 17 3e 1d 3d 89 bd
       -0.10498047 0.0034179688 -0.11425781 0.0009765625 -0.041748047 0.14746094 0.038330078 -0.06689453
000180 83 3d 12 3d f5 bd a6 bc 8f bd a3 bb b1 3b 1f 3d
       0.063964844 0.03564453 -0.119628906 -0.020263672 -0.06982422 -0.0049743652 0.0054016113 0.03881836
000190 a3 bb d4 3c 9e 3d a3 bd 6e bc 00 be 2e bd 89 bd
       -0.0049743652 0.025878906 0.07714844 -0.079589844 -0.014526367 -0.125 -0.04248047 -0.06689453
0001a0 d6 bd 9d bd 62 3c 94 bd a1 bc 2a bd e2 3d aa 3d
       -0.10449219 -0.076660156 0.013793945 -0.072265625 -0.01965332 -0.041503906 0.11035156 0.08300781
0001b0 8c 3d 98 3d 3a bd 7e bd 0d be 96 bd fc 3d e3 3d
       0.068359375 0.07421875 -0.045410156 -0.06201172 -0.13769531 -0.07324219 0.123046875 0.110839844
0001c0 3f 3d d0 3d 20 bd 1a 3d 90 bc 8e bb e6 bd f8 3d
       0.04663086 0.1015625 -0.0390625 0.037597656 -0.017578125 -0.004333496 -0.11230469 0.12109375
0001d0 d3 3d 2e bd cb 3c d1 3d 58 3c dd bd 27 bd dc 3d
       0.103027344 -0.04248047 0.024780273 0.10205078 0.013183594 -0.107910156 -0.040771484 0.107421875
0001e0 b0 3d 47 3d a3 bd a5 3d a0 3b 4c 3c da 3d e3 3d
       0.0859375 0.048583984 -0.079589844 0.080566406 0.0048828125 0.012451172 0.10644531 0.110839844
0001f0 dc bc 05 be b0 bd ea bd cd 3d 21 3c 9e 3d f2 bb
       -0.026855469 -0.12988281 -0.0859375 -0.11425781 0.100097656 0.00982666 0.07714844 -0.007385254

block.mlp.fc2.bias bf16 [32]
000000 94 bd 77 bd 86 bd 0f bc 06 3c dc bd 20 3d 2e bd
       -0.072265625 -0.060302734 -0.06542969 -0.008728027 0.008178711 -0.107421875 0.0390625 -0.04248047
000010 d3 bd 9e bc a9 bb 8a bd fc 3d f2 bc 8d bc e5 bd
       -0.103027344 -0.01928711 -0.0051574707 -0.06738281 0.123046875 -0.029541016 -0.017211914 -0.111816406
000020 00 3c 5a bd 81 3d 8d 3d 3e bd 07 3e df bd b0 bd
       0.0078125 -0.053222656 0.06298828 0.068847656 -0.04638672 0.13183594 -0.10888672 -0.0859375
000030 97 3d 71 bd 50 bd 02 be de bd 88 bd be bc 88 3d
       0.07373047 -0.05883789 -0.05078125 -0.12695312 -0.10839844 -0.06640625 -0.02319336 0.06640625

proj2.0.weight bf16 [32, 32, 3, 3]
000000 74 3d 4e 3c 77 bc 19 bc 8e 3d 77 3d 1c 3d 78 3d
       0.059570312 0.012573242 -0.015075684 -0.009338379 0.06933594 0.060302734 0.038085938 0.060546875
000010 39 bb fa 3b cf 3c b1 bc d9 bc a9 3c 2d 3d b5 bc
       -0.002822876 0.0076293945 0.025268555 -0.021606445 -0.026489258 0.020629883 0.042236328 -0.022094727
000020 ac 3c 64 bc 35 bd bf 3b de ba 13 3c 4b bd 11 3d
       0.020996094 -0.013916016 -0.044189453 0.0058288574 -0.0016937256 0.008972168 -0.049560547 0.03540039
000030 cd bc c6 3c 42 3d 1f bd 68 bd be bc 4e 3d 24 3c
       -0.025024414 0.024169922 0.04736328 -0.03881836 -0.056640625 -0.02319336 0.05029297 0.010009766
000040 69 3d 0b 3b e3 3b 35 bd f1 bc 6a 3d 23 bd 55 3d
       0.056884766 0.0021209717 0.0069274902 -0.044189453 -0.029418945 0.057128906 -0.039794922 0.052001953
000050 18 bd 3b 3d a1 3c 46 bb 63 bd 46 bd 43 3c 54 bd
       -0.037109375 0.045654297 0.01965332 -0.0030212402 -0.055419922 -0.048339844 0.0119018555 -0.051757812
000060 54 3c 08 bd ab bc 8e bd 40 bc fb 3b ee 3c 86 3c
       0.012939453 -0.033203125 -0.020874023 -0.06933594 -0.01171875 0.007659912 0.029052734 0.016357422
000070 a0 3c 00 bd 57 bd a3 bc 2c bb 91 bc a4 bc b2 bc
       0.01953125 -0.03125 -0.052490234 -0.019897461 -0.0026245117 -0.017700195 -0.020019531 -0.021728516
000080 71 bd 3e bc 8d bd a9 bd bc 3a 95 bd 00 bd 58 bd
       -0.05883789 -0.01159668 -0.068847656 -0.08251953 0.0014343262 -0.072753906 -0.03125 -0.052734375
000090 1f bd f1 bc 5f 3c f1 3a 0a 3d c0 bb d2 3b 18 3c
       -0.03881836 -0.029418945 0.01361084 0.0018386841 0.033691406 -0.005859375 0.0064086914 0.009277344
0000a0 11 3d 8d 3a 60 3c ff 3c 1b bd 4e 3c 0d 3d 3b bd
       0.03540039 0.0010757446 0.013671875 0.03112793 -0.037841797 0.012573242 0.034423828 -0.045654297
0000b0 e2 bc 8e bc 10 3c df 3c 20 3c 01 bd 24 3d aa 3c
       -0.02758789 -0.017333984 0.0087890625 0.02722168 0.009765625 -0.03149414 0.040039062 0.020751953
0000c0 17 3d 27 bc 89 3c 20 3d 3d 3d 83 3d 40 3d a6 bb
       0.036865234 -0.010192871 0.016723633 0.0390625 0.046142578 0.063964844 0.046875 -0.005065918
0000d0 d4 bb dc 3c 0d 3d 89 3d 4c bb c9 3b 1c bb 54 3d
       -0.0064697266 0.026855469 0.034423828 0.06689453 -0.003112793 0.006134033 -0.002380371 0.051757812
0000e0 58 bd ad bc fa bb 5d bc d3 3c 96 3c f2 bb 89 3c
       -0.052734375 -0.021118164 -0.0076293945 -0.0134887695 0.025756836 0.018310547 -0.007385254 0.016723633
0000f0 29 bd e8 3c 1f 3d 00 3d 3f 3d 32 3d 35 3d c4 3c
       -0.041259766 0.028320312 0.03881836 0.03125 0.04663086 0.04345703 0.044189453 0.023925781
000100 16 3c 01 3d 95 bc f5 3c 53 3d a2 bb 64 3d 63 3d
       0.009155273 0.03149414 -0.018188477 0.029907227 0.051513672 -0.0049438477 0.055664062 0.055419922
000110 76 3d 68 3d f1 3c 33 3d 14 3d 58 3d 59 3d 52 3d
       0.060058594 0.056640625 0.029418945 0.043701172 0.036132812 0.052734375 0.052978516 0.05126953
000120 42 3d 50 bd 1d bd 0c 3c a1 bc 2c 3d 4c 3c 35 bd
       0.04736328 -0.05078125 -0.038330078 0.008544922 -0.01965332 0.041992188 0.012451172 -0.044189453
000130 4d bc 11 3d 55 3d 63 3d 1f bd 25 bd 4f bc 08 bd
       -0.012512207 0.03540039 0.052001953 0.055419922 -0.03881836 -0.040283203 -0.012634277 -0.033203125
000140 18 bd 8b bc 15 3c 6b 3d 01 3d 25 3d 82 3d 86 3d
       -0.037109375 -0.016967773 0.009094238 0.057373047 0.03149414 0.040283203 0.06347656 0.06542969
000150 76 3d 38 3d d0 bc d3 39 0d bd 65 3b f6 bc fc bc
       0.060058594 0.044921875 -0.025390625 0.00040245056 -0.034423828 0.0034942627 -0.030029297 -0.030761719
000160 df 3c 8e bc 47 bd a8 3c e6 3c 25 bb 04 bc 82 3d
       0.02722168 -0.017333984 -0.048583984 0.020507812 0.028076172 -0.0025177002 -0.008056641 0.06347656
000170 11 bc 42 3c e9 b9 8d 3d bd 3c 9c 3c 24 bd 1d bd
       -0.008850098 0.01184082 -0.00044441223 0.068847656 0.023071289 0.019042969 -0.040039062 -0.038330078
000180 43 3d 1b bd f5 3c 87 bc a9 ba e5 bc 17 bc 76 3d
       0.047607422 -0.037841797 0.029907227 -0.016479492 -0.0012893677 -0.027954102 -0.009216309 0.060058594
000190 1f bd f4 bc 95 3c 77 3d 93 bb 5d 3d 6c 3d fb bc
       -0.03881836 -0.029785156 0.018188477 0.060302734 -0.004486084 0.053955078 0.057617188 -0.030639648
0001a0 8d bd 50 bd bf 3a 0b 3d 8f bc ca bc 86 bd 30 bd
       -0.068847656 -0.05078125 0.0014572144 0.033935547 -0.017456055 -0.024658203 -0.06542969 -0.04296875
0001b0 a8 3c 8b bc 44 3d eb bc 58 3d fd 3c 7e bc 88 3c
       0.020507812 -0.016967773 0.047851562 -0.028686523 0.052734375 0.030883789 -0.01550293 0.016601562
0001c0 91 ba 43 bd 23 bd 00 bc 4f bd 3c bd 1d 3d 8c 3b
       -0.0011062622 -0.047607422 -0.039794922 -0.0078125 -0.05053711 -0.045898438 0.038330078 0.004272461
0001d0 0b 3d c5 bc 6e 3c 43 3d 25 3d f3 bb 60 bd 3b bd
       0.033935547 -0.024047852 0.014526367 0.047607422 0.040283203 -0.0074157715 -0.0546875 -0.045654297
0001e0 d5 bc 36 bd 1b bd 8a 3b 00 3b 91 bd b2 3a 59 bd
       -0.026000977 -0.044433594 -0.037841797 0.004211426 0.001953125 -0.07080078 0.0013580322 -0.052978516
0001f0 73 bd 26 bd 9d bc 84 bd 02 3d ae bc b8 bc 4d bd
       -0.059326172 -0.040527344 -0.019165039 -0.064453125 0.03173828 -0.021240234 -0.022460938 -0.050048828

proj2.0.bias bf16 [32]
000000 2a 3b 32 3d c2 3c 8e bd 4a bd 55 bd 18 3d 34 3c
       0.0025939941 0.04345703 0.02368164 -0.06933594 -0.049316406 -0.052001953 0.037109375 0.010986328
000010 56 bd a6 bc 38 bd b3 bb 95 3c 7e 3d 84 3b 87 3d
       -0.052246094 -0.020263672 -0.044921875 -0.0054626465 0.018188477 0.06201172 0.0040283203 0.06591797
000020 f7 3c c1 bc f1 bc 4f 3d 19 3d 86 bc b4 bd 23 3d
       0.030151367 -0.02355957 -0.029418945 0.05053711 0.037353516 -0.016357422 -0.087890625 0.039794922
000030 91 3d 7c bd 2c 3c 91 3d 5d bd 0b bd 40 bd f0 bc
       0.07080078 -0.061523438 0.010498047 0.07080078 -0.053955078 -0.033935547 -0.046875 -0.029296875

proj2.2.weight bf16 [1, 32, 3, 3]
000000 25 3d f0 3c 34 3d fe 3c 39 bd dd 3c 46 3c 45 3d
       0.040283203 0.029296875 0.043945312 0.03100586 -0.045166016 0.026977539 0.012084961 0.048095703
000010 12 3d 67 bc ce bb 27 bd 4f bd 32 bd 39 bd 2f bd
       0.03564453 -0.014099121 -0.006286621 -0.040771484 -0.05053711 -0.04345703 -0.045166016 -0.04272461
000020 93 bd b1 ba fc bc 29 bd 2d bd 9b 3c 80 3d 42 3d
       -0.071777344 -0.0013504028 -0.030761719 -0.041259766 -0.042236328 0.018920898 0.0625 0.04736328
000030 a6 3c 26 3c 80 3c 7c 3d 29 3c ce 3a 17 3c 1e 3b
       0.020263672 0.010131836 0.015625 0.061523438 0.010314941 0.0015716553 0.009216309 0.0024108887
000040 39 3d ab bb 19 3d 5f 3d 1d 3d 01 bd a0 bc cd bc
       0.045166016 -0.005218506 0.037353516 0.05444336 0.038330078 -0.03149414 -0.01953125 -0.025024414
000050 3d bd 45 bd 81 3b e8 3c 47 bd 84 3c 73 3b e9 bc
       -0.046142578 -0.048095703 0.0039367676 0.028320312 -0.048583984 0.016113281 0.0037078857 -0.028442383
000060 95 3a 00 bd 99 bd 15 3d ab 3d 16 3a 2f 3d 02 3c
       0.0011367798 -0.03125 -0.07470703 0.036376953 0.083496094 0.0005722046 0.04272461 0.00793457
000070 20 3d ed bc 8e 3a d3 3c e7 bc c5 bc f3 3c 34 3d
       0.0390625 -0.028930664 0.001083374 0.025756836 -0.028198242 -0.024047852 0.029663086 0.043945312
000080 07 3d fe bb 04 3d 33 3d 66 bc 1a bd 54 3d 09 3c
       0.032958984 -0.007751465 0.032226562 0.043701172 -0.014038086 -0.037597656 0.051757812 0.008361816
000090 23 bd 4f 3d 98 bc 16 bc ce 3d c7 3c 0e bd b7 bc
       -0.039794922 0.05053711 -0.018554688 -0.009155273 0.10058594 0.024291992 -0.03466797 -0.022338867
0000a0 90 3c af 3c 3f bd 07 bd 66 bd 54 bc 4a bd 51 bd
       0.017578125 0.021362305 -0.04663086 -0.032958984 -0.056152344 -0.012939453 -0.049316406 -0.05102539
0000b0 b0 3a 0f bd df bb 14 bc e3 3c f3 bc ca bd dc bc
       0.0013427734 -0.03491211 -0.00680542 -0.009033203 0.027709961 -0.029663086 -0.09863281 -0.026855469
0000c0 84 bc 30 ba 6a 3d d8 bb a7 bd 6e 3c c5 3c 80 3d
       -0.016113281 -0.0006713867 0.057128906 -0.006591797 -0.08154297 0.014526367 0.024047852 0.0625
0000d0 72 3d 4a 3d 08 3d fb bb b2 bc ff bc 51 3c ea bc
       0.05908203 0.049316406 0.033203125 -0.007659912 -0.021728516 -0.03112793 0.012756348 -0.028564453
0000e0 11 3d a5 bd 34 bd f4 bb f9 ba c2 3c 28 3d 1d bd
       0.03540039 -0.080566406 -0.043945312 -0.007446289 -0.0018997192 0.02368164 0.041015625 -0.038330078
0000f0 c6 bc 20 3d a5 3c 64 3d 89 3b cb bc 69 bd 10 3c
       -0.024169922 0.0390625 0.020141602 0.055664062 0.004180908 -0.024780273 -0.056884766 0.0087890625
000100 24 3c 80 bd d7 3c 85 3c 1e bd 31 3d 3b 3d 0b bd
       0.010009766 -0.0625 0.026245117 0.016235352 -0.03857422 0.04321289 0.045654297 -0.033935547
000110 c7 bc 0a 3d 77 3c d8 bc 58 3d 42 3a 08 3d 30 3d
       -0.024291992 0.033691406 0.015075684 -0.026367188 0.052734375 0.00074005127 0.033203125 0.04296875
000120 b4 bc fb 3c ab 3b 42 3d 4b 3d 1f 3c 50 3d a2 3c
       -0.021972656 0.030639648 0.005218506 0.04736328 0.049560547 0.00970459 0.05078125 0.01977539
000130 b3 bb e4 bc 58 bc fb 3c 54 3d 35 3d 9a bd c3 3c
       -0.0054626465 -0.027832031 -0.013183594 0.030639648 0.051757812 0.044189453 -0.07519531 0.023803711
000140 f0 3c 90 bc 54 bd 6b 3d 05 3d 0a bd 80 3d 42 3d
       0.029296875 -0.017578125 -0.051757812 0.057373047 0.032470703 -0.033691406 0.0625 0.04736328
000150 cf bc 2a 3d d9 bc 59 3c 36 bd 16 3d b0 bb bf bd
       -0.025268555 0.041503906 -0.026489258 0.013244629 -0.044433594 0.036621094 -0.0053710938 -0.09326172
000160 be 39 93 bd bd bd 96 bb d6 3c 01 3d 0c 3d cd 3a
       0.00036239624 -0.071777344 -0.092285156 -0.0045776367 0.026123047 0.03149414 0.034179688 0.0015640259
000170 d3 bc 06 3d 44 bd c1 bc 4e bc 8d bd 3c bb 80 bd
       -0.025756836 0.032714844 -0.047851562 -0.02355957 -0.012573242 -0.068847656 -0.0028686523 -0.0625
000180 84 bd 7d bd e7 bc 80 bd ad bc 88 bd 86 bc 8c 3d
       -0.064453125 -0.061767578 -0.028198242 -0.0625 -0.021118164 -0.06640625 -0.016357422 0.068359375
000190 d2 bc 57 bd 07 3d b2 3d eb bc 6f bd 07 3c b4 bc
       -0.025634766 -0.052490234 0.032958984 0.08691406 -0.028686523 -0.05834961 0.008239746 -0.021972656
0001a0 9a 3d f7 3c 6d bd 97 bc 08 bd bf 3c 18 bd 03 bd
       0.07519531 0.030151367 -0.057861328 -0.018432617 -0.033203125 0.02331543 -0.037109375 -0.031982422
0001b0 cd bc 59 3c c8 3c 12 3d 1b 3d 9b 3c 3f 3b f8 3c
       -0.025024414 0.013244629 0.024414062 0.03564453 0.037841797 0.018920898 0.0029144287 0.030273438
0001c0 85 bc 01 bd f1 bc b0 3c 92 bd ca 3d 02 bd 82 bc
       -0.016235352 -0.03149414 -0.029418945 0.021484375 -0.07128906 0.09863281 -0.03173828 -0.01586914
0001d0 d5 3c 38 3d 95 3b 3b 3d 07 bd 87 3c 84 3d bf 3c
       0.026000977 0.044921875 0.004547119 0.045654297 -0.032958984 0.016479492 0.064453125 0.02331543
0001e0 cc bc 80 3c a4 bc c3 3c 37 bd 26 bd ef bc b1 bd
       -0.024902344 0.015625 -0.020019531 0.023803711 -0.044677734 -0.040527344 -0.029174805 -0.08642578
0001f0 fe bc c0 3c 31 bd 5f 3c 22 3d 08 3d 96 bc 0b bd
       -0.03100586 0.0234375 -0.04321289 0.01361084 0.03955078 0.033203125 -0.018310547 -0.033935547
