Model/MapAnything_Accelerator/checkpoint.pth (torch, 108997 bytes, 17 tensors)

proj1.weight bf16 [32, 1024]
-0.030151367 -0.021240234 -0.024169922 0.03930664 0.036865234 -0.014587402 -0.0052490234 -0.015625
0.017211914 0.006591797 -0.037109375 -0.0076293945 0.005340576 0.010925293 0.011230469 0.021606445
0.056396484 -0.030761719 0.0014572144 0.059326172 -0.015625 -0.003036499 0.029785156 -0.06225586
-0.016601562 -0.050048828 0.009765625 0.015319824 -0.018188477 -0.023925781 0.018920898 -0.059814453
-0.018188477 0.03540039 -0.00090408325 -0.03125 0.0018997192 -0.052001953 0.028686523 0.0034332275
0.0031738281 0.009338379 0.003753662 -0.0049743652 0.03857422 0.021118164 0.03515625 0.047851562
-0.056396484 0.009033203 0.03466797 -0.020507812 -0.021606445 0.018554688 0.007080078 -0.009765625
0.040039062 0.048828125 0.03930664 -0.015136719 0.0107421875 -0.006164551 -0.024536133 -0.025756836
-0.008605957 0.0039367676 0.053955078 -0.018920898 -0.020629883 -0.040283203 -0.0030212402 -0.09326172
-0.016845703 -0.0004386902 0.024291992 -0.0017623901 -0.010864258 0.022583008 -0.033691406 -0.004425049
-0.028320312 -0.053222656 -0.00680542 0.044433594 -0.032958984 -0.03881836 -0.015319824 -0.008728027
0.017456055 -0.018920898 -0.020385742 -0.0012512207 0.0022583008 -0.0546875 0.015991211 -0.0043640137
-0.01574707 0.025878906 -0.064941406 0.020996094 -0.017333984 -0.0008010864 0.009643555 0.030395508
0.0076904297 0.010070801 -0.009338379 0.011169434 0.0040283203 -0.0028381348 0.068847656 -0.01953125
-0.026489258 -0.008422852 -0.078125 -0.037597656 -0.027709961 -0.05810547 0.015625 0.03491211
-0.036132812 0.024047852 -0.056152344 -0.028564453 0.020141602 0.011169434 -0.025268555 0.013000488
0.009338379 0.048583984 0.032958984 0.029907227 -0.028442383 0.046875 -0.026855469 -0.00010585785
-0.036621094 0.052490234 -0.014770508 -0.041259766 0.0234375 -0.016357422 0.0021514893 0.009155273
0.013122559 -0.03100586 -0.04321289 -0.008911133 0.024536133 -0.022216797 -0.027954102 0.026245117
-0.03515625 -0.006072998 0.01940918 -0.044677734 0.018188477 -0.03125 -0.022705078 0.04248047
-0.056884766 -0.06347656 -0.008605957 -0.005004883 0.012268066 -0.0026550293 0.022338867 0.07324219
0.03149414 -0.028808594 0.008422852 -0.026000977 -0.013427734 0.032470703 -0.0014190674 0.017333984
0.03491211 0.025390625 0.026123047 0.012084961 -0.0037231445 -0.008850098 0.0019226074 0.00491333
-0.029541016 0.009765625 0.010253906 0.027954102 0.027709961 -0.030395508 -0.008178711 0.05126953
0.0029144287 0.03564453 0.01574707 0.03125 -0.004425049 0.0026397705 -0.0051574707 0.012023926
0.024902344 0.0062561035 -0.008178711 0.041015625 0.0061950684 -0.059814453 0.012756348 -0.0074768066
0.00970459 0.023803711 0.005340576 -0.047851562 -0.010009766 0.021728516 0.0025024414 -0.04272461
0.04663086 -0.007171631 -0.009033203 -0.008117676 0.056152344 -0.049316406 0.0107421875 0.00076293945
-0.029174805 0.0030822754 0.0020599365 0.025512695 -0.005004883 -0.044677734 -0.022094727 0.03466797
0.025024414 -0.0625 0.0703125 0.020385742 -0.03173828 0.0390625 -0.018554688 -0.013244629
0.022583008 0.02709961 -0.0390625 0.008422852 0.059814453 0.031982422 0.03173828 -0.009887695
0.045166016 -0.030761719 -0.006378174 -0.032470703 -0.003540039 0.0031280518 -0.024658203 0.0043945312
00000000: f7bc aebc c6bc 213d 173d 6fbc acbb 80bc
00000010: 8d3c d83b 18bd fabb af3b 333c 383c b13c
00000020: 673d fcbc bf3a 733d 80bc 47bb f43c 7fbd
00000030: 88bc 4dbd 203c 7b3c 95bc c4bc 9b3c 75bd
00000040: 95bc 113d 6dba 00bd f93a 55bd eb3c 613b
00000050: 503b 193c 763b a3bb 1e3d ad3c 103d 443d
00000060: 67bd 143c 0e3d a8bc b1bc 983c e83b 20bc
00000070: 243d 483d 213d 78bc 303c cabb c9bc d3bc
00000080: 0dbc 813b 5d3d 9bbc a9bc 25bd 46bb bfbd
00000090: 8abc e6b9 c73c e7ba 32bc b93c 0abd 91bb
000000a0: e8bc 5abd dfbb 363d 07bd 1fbd 7bbc 0fbc
000000b0: 8f3c 9bbc a7bc a4ba 143b 60bd 833c 8fbb
000000c0: 81bc d43c 85bd ac3c 8ebc 52ba 1e3c f93c
000000d0: fc3b 253c 19bc 373c 843b 3abb 8d3d a0bc
000000e0: d9bc 0abc a0bd 1abd e3bc 6ebd 803c 0f3d
000000f0: 14bd c53c 66bd eabc a53c 373c cfbc 553c
00000100: 193c 473d 073d f53c e9bc 403d dcbc deb8
00000110: 16bd 573d 72bc 29bd c03c 86bc 0d3b 163c
00000120: 573c febc 31bd 12bc c93c b6bc e5bc d73c
00000130: 10bd c7bb 9f3c 37bd 953c 00bd babc 2e3d
00000140: 69bd 82bd 0dbc a4bb 493c 2ebb b73c 963d
00000150: 013d ecbc 0a3c d5bc 5cbc 053d baba 8e3c
00000160: 0f3d d03c d63c 463c 74bb 11bc fc3a a13b
00000170: f2bc 203c 283c e53c e33c f9bc 06bc 523d
00000180: 3f3b 123d 813c 003d 91bb 2d3b a9bb 453c
00000190: cc3c cd3b 06bc 283d cb3b 75bd 513c f5bb
000001a0: 1f3c c33c af3b 44bd 24bc b23c 243b 2fbd
000001b0: 3f3d ebbb 14bc 05bc 663d 4abd 303c 483a
000001c0: efbc 4a3b 073b d13c a4bb 37bd b5bc 0e3d
000001d0: cd3c 80bd 903d a73c 02bd 203d 98bc 59bc
000001e0: b93c de3c 20bd 0a3c 753d 033d 023d 22bc
000001f0: 393d fcbc d1bb 05bd 68bb 4d3b cabc 903b

proj1.bias bf16 [32]
-0.001449585 -0.018310547 -0.003326416 -0.01940918 -0.018432617 0.022949219 -0.007232666 0.006439209
0.0058898926 0.0021820068 -0.0038909912 -0.020263672 -0.0054626465 -0.025634766 0.016967773 -0.033691406
0.04272461 -0.005584717 0.0154418945 -0.009033203 0.018310547 -0.017822266 -0.016235352 -0.022338867
-0.01550293 0.005706787 0.038330078 -0.0061035156 0.010192871 0.016845703 0.030883789 -0.031982422
00000000: beba 96bc 5abb 9fbc 97bc bc3c edbb d33b
00000010: c13b 0f3b 7fbb a6bc b3bb d2bc 8b3c 0abd
00000020: 2f3d b7bb 7d3c 14bc 963c 92bc 85bc b7bc
00000030: 7ebc bb3b 1d3d c8bb 273c 8a3c fd3c 03bd

block.norm1.weight bf16 [32]
1.0 1.0 1.0 1.0 1.0 1.0 1.0 1.0
1.0 1.0 1.0 1.0 1.0 1.0 1.0 1.0
1.0 1.0 1.0 1.0 1.0 1.0 1.0 1.0
1.0 1.0 1.0 1.0 1.0 1.0 1.0 1.0
00000000: 803f 803f 803f 803f 803f 803f 803f 803f
00000010: 803f 803f 803f 803f 803f 803f 803f 803f
00000020: 803f 803f 803f 803f 803f 803f 803f 803f
00000030: 803f 803f 803f 803f 803f 803f 803f 803f

block.norm1.bias bf16 [32]
-0.014709473 -0.012390137 0.00340271 0.010314941 -0.0077819824 -0.013793945 0.012145996 0.0066223145
0.014892578 0.0019683838 0.017944336 0.0047302246 -0.0066833496 -0.010925293 0.008850098 -0.010559082
-0.0040283203 -0.0065307617 0.010070801 0.012207031 -0.016845703 0.002456665 0.020751953 0.0154418945
0.0012969971 0.01574707 0.0046081543 -0.003616333 -0.018432617 0.002960205 -0.030029297 -0.0002822876
00000000: 71bc 4bbc 5f3b 293c ffbb 62bc 473c d93b
00000010: 743c 013b 933c 9b3b dbbb 33bc 113c 2dbc
00000020: 84bb d6bb 253c 483c 8abc 213b aa3c 7d3c
00000030: aa3a 813c 973b 6dbb 97bc 423b f6bc 94b9

block.attn.qkv.weight bf16 [96, 32]
0.068359375 0.10839844 0.06738281 -0.16992188 -0.006866455 -0.047607422 -0.14746094 -0.16699219
-0.032958984 -0.04663086 -0.008422852 -0.025756836 -0.0026245117 0.06689453 -0.008239746 0.04711914
0.0546875 -0.12011719 0.017089844 -0.09472656 0.099609375 -0.10839844 -0.02355957 0.036865234
0.04321289 -0.032226562 -0.12890625 0.15136719 -0.08251953 -0.04248047 0.06689453 0.045166016
-0.007537842 0.12402344 0.15332031 -0.01574707 0.015625 -0.17089844 -0.068847656 0.1015625
0.11279297 -0.15136719 -0.15039062 -0.0021209717 0.011779785 0.123046875 -0.08203125 0.05908203
0.12890625 0.017822266 0.09667969 -0.115234375 -0.08105469 0.045410156 -0.114746094 0.087890625
-0.14550781 -0.0065307617 0.10546875 -0.12792969 -0.14453125 0.111328125 0.12207031 -0.012329102
0.08154297 -0.0099487305 0.119628906 -0.109375 0.028198242 -0.13769531 0.09765625 -0.13085938
0.099121094 -0.0546875 0.12060547 -0.08496094 -0.020019531 -0.17675781 -0.041992188 0.06225586
-0.018188477 0.05029297 0.13964844 -0.09326172 0.044189453 -0.044433594 0.016479492 0.08984375
0.16699219 0.15039062 0.03881836 0.01574707 -0.008544922 -0.029052734 0.05517578 0.076171875
-0.017211914 0.13183594 -0.111328125 0.07324219 0.12207031 0.099609375 -0.09814453 0.055419922
-0.16503906 -0.06982422 0.041992188 -0.15625 0.06689453 0.13769531 -0.16601562 0.095703125
0.123046875 -0.030761719 -0.064453125 0.0059509277 -0.072265625 -0.06225586 0.030029297 -0.08886719
-0.053955078 0.072265625 0.0026855469 -0.111328125 0.07128906 -0.075683594 0.13964844 -0.024291992
-0.12597656 -0.038085938 -0.028076172 0.111328125 -0.037109375 0.087890625 0.07128906 0.12158203
0.115234375 0.10498047 0.0009651184 0.16210938 -0.17578125 0.07714844 -0.15234375 0.13476562
0.13867188 -0.087890625 0.16308594 0.06982422 0.079589844 -0.025878906 0.12890625 -0.040771484
0.13476562 -0.09667969 -0.17382812 -0.10546875 -0.15722656 0.115722656 -0.11767578 0.037841797
-0.07763672 0.06542969 0.13476562 0.12451172 -0.05517578 -0.09667969 0.0011367798 -0.123535156
-0.15722656 0.15917969 0.035888672 0.08935547 -0.084472656 -0.045410156 0.0045166016 0.025390625
0.15917969 -0.15234375 -0.008361816 -0.08691406 -0.088378906 0.15917969 0.13769531 0.03149414
-0.024047852 -0.048583984 -0.0051879883 -0.05493164 -0.056396484 -0.12207031 0.1484375 -0.14160156
0.045898438 0.028686523 -0.048095703 -0.15332031 0.021362305 0.15136719 0.096191406 -0.12890625
-0.0234375 0.115234375 0.060302734 -0.10888672 0.114746094 0.15917969 0.072753906 0.16308594
-0.122558594 -0.005493164 -0.078125 -0.14941406 -0.026367188 -0.103027344 -0.13867188 0.092285156
0.07714844 -0.026367188 0.08642578 -0.119628906 -0.026855469 0.06689453 -0.08984375 -0.007019043
-0.11767578 0.03881836 -0.15820312 -0.031982422 -0.0021209717 0.04711914 -0.11669922 0.008544922
0.03466797 -0.025878906 0.13085938 -0.15429688 -0.0859375 0.16015625 0.0034179688 -0.15429688
-0.07910156 0.02368164 -0.12695312 -0.036376953 0.15039062 0.12792969 -0.095703125 -0.01977539
0.033447266 -0.12695312 0.016357422 -0.16601562 0.11328125 -0.03173828 -0.11669922 -0.03540039
00000000: 8c3d de3d 8a3d 2ebe e1bb 43bd 17be 2bbe
00000010: 07bd 3fbd 0abc d3bc 2cbb 893d 07bc 413d
00000020: 603d f6bd 8c3c c2bd cc3d debd c1bc 173d
00000030: 313d 04bd 04be 1b3e a9bd 2ebd 893d 393d
00000040: f7bb fe3d 1d3e 81bc 803c 2fbe 8dbd d03d
00000050: e73d 1bbe 1abe 0bbb 413c fc3d a8bd 723d
00000060: 043e 923c c63d ecbd a6bd 3a3d ebbd b43d
00000070: 15be d6bb d83d 03be 14be e43d fa3d 4abc
00000080: a73d 23bc f53d e0bd e73c 0dbe c83d 06be
00000090: cb3d 60bd f73d aebd a4bc 35be 2cbd 7f3d
000000a0: 95bc 4e3d 0f3e bfbd 353d 36bd 873c b83d
000000b0: 2b3e 1a3e 1f3d 813c 0cbc eebc 623d 9c3d
000000c0: 8dbc 073e e4bd 963d fa3d cc3d c9bd 633d
000000d0: 29be 8fbd 2c3d 20be 893d 0d3e 2abe c43d
000000e0: fc3d fcbc 84bd c33b 94bd 7fbd f63c b6bd
000000f0: 5dbd 943d 303b e4bd 923d 9bbd 0f3e c7bc
00000100: 01be 1cbd e6bc e43d 18bd b43d 923d f93d
00000110: ec3d d73d 7d3a 263e 34be 9e3d 1cbe 0a3e
00000120: 0e3e b4bd 273e 8f3d a33d d4bc 043e 27bd
00000130: 0a3e c6bd 32be d8bd 21be ed3d f1bd 1b3d
00000140: 9fbd 863d 0a3e ff3d 62bd c6bd 953a fdbd
00000150: 21be 233e 133d b73d adbd 3abd 943b d03c
00000160: 233e 1cbe 09bc b2bd b5bd 233e 0d3e 013d
00000170: c5bc 47bd aabb 61bd 67bd fabd 183e 11be
00000180: 3c3d eb3c 45bd 1dbe af3c 1b3e c53d 04be
00000190: c0bc ec3d 773d dfbd eb3d 233e 953d 273e
000001a0: fbbd b4bb a0bd 19be d8bc d3bd 0ebe bd3d
000001b0: 9e3d d8bc b13d f5bd dcbc 893d b8bd e6bb
000001c0: f1bd 1f3d 22be 03bd 0bbb 413d efbd 0c3c
000001d0: 0e3d d4bc 063e 1ebe b0bd 243e 603b 1ebe
000001e0: a2bd c23c 02be 15bd 1a3e 033e c4bd a2bc
000001f0: 093d 02be 863c 2abe e83d 02bd efbd 11bd

block.attn.qkv.bias bf16 [96]
-0.09667969 0.07763672 -0.052490234 0.036865234 0.013916016 -0.007385254 -0.11425781 0.118652344
-0.040527344 -0.13671875 0.02746582 -0.04296875 -0.009216309 0.09863281 -0.13769531 -0.055664062
-0.13769531 -0.011047363 0.115722656 0.055908203 0.032470703 -0.07763672 -0.072753906 0.106933594
-0.096191406 -0.037597656 0.079589844 0.11230469 -0.011047363 0.010803223 -0.16308594 -0.109375
-0.056640625 0.04321289 -0.14550781 -0.006225586 0.020629883 0.15136719 0.095703125 0.09716797
0.115722656 0.075683594 -0.15820312 0.16503906 -0.017333984 0.15722656 0.013427734 -0.123046875
-0.17089844 -0.0025024414 0.072265625 0.14355469 -0.036621094 -0.17285156 -0.091796875 -0.049804688
0.052734375 -0.18066406 -0.018310547 -0.08105469 -0.16113281 0.17285156 0.045166016 0.0703125
-0.14746094 -0.16992188 0.028564453 0.028808594 -0.031982422 -0.140625 -0.08886719 -0.087402344
-0.104003906 0.033203125 -0.0703125 0.03515625 0.06640625 -0.052734375 0.042236328 0.16308594
-0.18066406 0.13671875 0.013000488 0.123046875 0.14550781 0.09716797 -0.140625 0.11425781
-0.048828125 0.14160156 -0.13476562 -0.115722656 -0.16503906 -0.10644531 -0.001953125 -0.13085938
00000000: c6bd 9f3d 57bd 173d 643c f2bb eabd f33d
00000010: 26bd 0cbe e13c 30bd 17bc ca3d 0dbe 64bd
00000020: 0dbe 35bc ed3d 653d 053d 9fbd 95bd db3d
00000030: c5bd 1abd a33d e63d 35bc 313c 27be e0bd
00000040: 68bd 313d 15be ccbb a93c 1b3e c43d c73d
00000050: ed3d 9b3d 22be 293e 8ebc 213e 5c3c fcbd
00000060: 2fbe 24bb 943d 133e 16bd 31be bcbd 4cbd
00000070: 583d 39be 96bc a6bd 25be 313e 393d 903d
00000080: 17be 2ebe ea3c ec3c 03bd 10be b6bd b3bd
00000090: d5bd 083d 90bd 103d 883d 58bd 2d3d 273e
000000a0: 39be 0c3e 553c fc3d 153e c73d 10be ea3d
000000b0: 48bd 113e 0abe edbd 29be dabd 00bb 06be

block.attn.proj.weight bf16 [32, 32]
-0.13183594 0.06591797 -0.0073547363 0.09033203 0.119628906 0.018920898 -0.05078125 -0.1328125
-0.13964844 -0.12792969 0.044433594 -0.037597656 -0.0859375 -0.022338867 0.107421875 -0.111328125
0.17675781 0.07910156 0.16992188 -0.07714844 -0.026733398 -0.14160156 -0.1640625 -0.11328125
-0.107910156 -0.14941406 0.16015625 -0.048339844 0.09423828 -0.0119018555 0.1328125 0.06201172
-0.11230469 -0.080078125 0.056152344 -0.14550781 0.083984375 -0.14648438 0.171875 0.052246094
-0.12011719 -0.048339844 -0.15722656 -0.15039062 -0.017578125 0.072265625 -0.020629883 0.12402344
0.15917969 -0.080078125 0.15429688 0.12109375 -0.076660156 0.061279297 -0.0030212402 -0.13183594
-0.036621094 -0.06933594 0.15429688 0.041748047 0.14941406 -0.104003906 0.030273438 0.075683594
-0.091796875 -0.014709473 -0.13671875 0.05517578 -0.0022583008 0.12988281 0.12988281 -0.125
-0.11328125 -0.05834961 0.11035156 0.13574219 -0.018310547 0.103027344 -0.040283203 -0.0099487305
0.05834961 -0.07714844 0.13085938 -0.09082031 0.15234375 0.07080078 -0.076660156 -0.088378906
0.008544922 0.13476562 0.1328125 -0.067871094 0.022338867 -0.028076172 -0.107910156 0.14355469
-0.13769531 0.072753906 -0.03515625 -0.1484375 0.07421875 -0.09082031 0.16308594 0.07080078
-0.11816406 0.06982422 0.06591797 -0.028442383 0.064453125 -0.087402344 -0.042236328 -0.09277344
0.16796875 -0.09814453 -0.05883789 -0.07910156 0.09082031 -0.05493164 0.10058594 -0.17382812
-0.17578125 0.15136719 0.09375 0.15820312 0.115722656 0.12695312 -0.01574707 -0.050048828
-0.068359375 -0.0154418945 -0.14160156 0.087402344 -0.11767578 0.051513672 0.07373047 0.10986328
0.12792969 -0.07080078 0.122558594 0.15527344 -0.006225586 0.03173828 0.009033203 0.14941406
0.015319824 -0.15039062 0.057128906 -0.15234375 -0.044677734 0.14160156 0.17089844 -0.0012893677
0.04296875 0.14257812 0.14941406 0.008728027 0.103027344 -0.12988281 -0.09667969 -0.1015625
-0.103027344 -0.1796875 -0.07763672 -0.103027344 0.033447266 0.1328125 0.016845703 0.107910156
0.14453125 0.17578125 0.10546875 0.014160156 0.027832031 0.08642578 0.095703125 0.13574219
-0.17089844 0.15917969 0.05883789 -0.096191406 -0.08886719 0.13476562 0.13378906 0.15234375
-0.04663086 -0.09326172 0.08105469 -0.0115356445 -0.053222656 0.049804688 -0.021362305 0.079589844
-0.12988281 -0.08105469 0.08935547 -0.15820312 0.16015625 -0.099609375 0.12988281 -0.07324219
0.018066406 -0.044433594 -0.15722656 -0.09863281 -0.02355957 -0.0032348633 -0.0859375 -0.092285156
0.16308594 0.052490234 -0.016235352 -0.064453125 -0.16210938 0.106933594 -0.15625 0.107421875
-0.07080078 -0.10595703 -0.07080078 0.13867188 0.109375 -0.016723633 0.14648438 0.028442383
-0.0016555786 0.041015625 0.03466797 0.061767578 0.119140625 0.123046875 -0.03515625 -0.056640625
0.12109375 -0.08496094 -0.09033203 -0.03100586 0.13867188 -0.055908203 0.07519531 -0.088378906
-0.036621094 0.03466797 -0.111328125 0.080566406 0.14355469 -0.017822266 -0.088378906 -0.09375
0.020996094 0.15332031 -0.14257812 0.13964844 -0.1484375 0.079589844 -0.072265625 -0.07519531
00000000: 07be 873d f1bb b93d f53d 9b3c 50bd 08be
00000010: 0fbe 03be 363d 1abd b0bd b7bc dc3d e4bd
00000020: 353e a23d 2e3e 9ebd dbbc 11be 28be e8bd
00000030: ddbd 19be 243e 46bd c13d 43bc 083e 7e3d
00000040: e6bd a4bd 663d 15be ac3d 16be 303e 563d
00000050: f6bd 46bd 21be 1abe 90bc 943d a9bc fe3d
00000060: 233e a4bd 1e3e f83d 9dbd 7b3d 46bb 07be
00000070: 16bd 8ebd 1e3e 2b3d 193e d5bd f83c 9b3d
00000080: bcbd 71bc 0cbe 623d 14bb 053e 053e 00be
00000090: e8bd 6fbd e23d 0b3e 96bc d33d 25bd 23bc
000000a0: 6f3d 9ebd 063e babd 1c3e 913d 9dbd b5bd
000000b0: 0c3c 0a3e 083e 8bbd b73c e6bc ddbd 133e
000000c0: 0dbe 953d 10bd 18be 983d babd 273e 913d
000000d0: f2bd 8f3d 873d e9bc 843d b3bd 2dbd bebd
000000e0: 2c3e c9bd 71bd a2bd ba3d 61bd ce3d 32be
000000f0: 34be 1b3e c03d 223e ed3d 023e 81bc 4dbd
00000100: 8cbd 7dbc 11be b33d f1bd 533d 973d e13d
00000110: 033e 91bd fb3d 1f3e ccbb 023d 143c 193e
00000120: 7b3c 1abe 6a3d 1cbe 37bd 113e 2f3e a9ba
00000130: 303d 123e 193e 0f3c d33d 05be c6bd d0bd
00000140: d3bd 38be 9fbd d3bd 093d 083e 8a3c dd3d
00000150: 143e 343e d83d 683c e43c b13d c43d 0b3e
00000160: 2fbe 233e 713d c5bd b6bd 0a3e 093e 1c3e
00000170: 3fbd bfbd a63d 3dbc 5abd 4c3d afbc a33d
00000180: 05be a6bd b73d 22be 243e ccbd 053e 96bd
00000190: 943c 36bd 21be cabd c1bc 54bb b0bd bdbd
000001a0: 273e 573d 85bc 84bd 26be db3d 20be dc3d
000001b0: 91bd d9bd 91bd 0e3e e03d 89bc 163e e93c
000001c0: d9ba 283d 0e3d 7d3d f43d fc3d 10bd 68bd
000001d0: f83d aebd b9bd febc 0e3e 65bd 9a3d b5bd
000001e0: 16bd 0e3d e4bd a53d 133e 92bc b5bd c0bd
000001f0: ac3c 1d3e 12be 0f3e 18be a33d 94bd 9abd

block.attn.proj.bias bf16 [32]
0.11669922 0.0859375 -0.01184082 0.11816406 0.028198242 0.049804688 0.03881836 0.13574219
-0.09765625 0.048828125 -0.1171875 -0.1640625 0.13574219 -0.01928711 -0.08496094 0.118652344
-0.12695312 -0.111816406 0.09033203 0.13476562 0.060058594 0.079589844 -0.13183594 0.16015625
-0.049804688 -0.009643555 -0.083496094 -0.06591797 -0.0033874512 -0.034423828 0.0099487305 0.0014190674
00000000: ef3d b03d 42bc f23d e73c 4c3d 1f3d 0b3e
00000010: c8bd 483d f0bd 28be 0b3e 9ebc aebd f33d
00000020: 02be e5bd b93d 0a3e 763d a33d 07be 243e
00000030: 4cbd 1ebc abbd 87bd 5ebb 0dbd 233c ba3a

block.norm2.weight bf16 [32]
1.0 1.0 1.0 1.0 1.0 1.0 1.0 1.0
1.0 1.0 1.0 1.0 1.0 1.0 1.0 1.0
1.0 1.0 1.0 1.0 1.0 1.0 1.0 1.0
1.0 1.0 1.0 1.0 1.0 1.0 1.0 1.0
00000000: 803f 803f 803f 803f 803f 803f 803f 803f
00000010: 803f 803f 803f 803f 803f 803f 803f 803f
00000020: 803f 803f 803f 803f 803f 803f 803f 803f
00000030: 803f 803f 803f 803f 803f 803f 803f 803f

block.norm2.bias bf16 [32]
0.001953125 -0.026367188 -0.010681152 -0.015625 -0.014831543 -0.007537842 -0.0050964355 -0.0013427734
-0.011169434 0.012145996 -0.021240234 -0.001335144 -0.008361816 -0.011047363 -0.0023956299 -0.018554688
0.031982422 0.01953125 -0.01586914 0.0074157715 0.03149414 -0.0026855469 -0.0004711151 0.020263672
-0.0073242188 0.015625 0.0138549805 -0.01586914 -0.010314941 0.010864258 0.0012817383 0.017089844
00000000: 003b d8bc 2fbc 80bc 73bc f7bb a7bb b0ba
00000010: 37bc 473c aebc afba 09bc 35bc 1dbb 98bc
00000020: 033d a03c 82bc f33b 013d 30bb f7b9 a63c
00000030: f0bb 803c 633c 82bc 29bc 323c a83a 8c3c

block.mlp.fc1.weight bf16 [64, 32]
-0.09863281 -0.012756348 0.0703125 -0.111328125 0.16894531 -0.08105469 0.021484375 0.16113281
0.0390625 0.025512695 0.034423828 0.13867188 -0.16601562 0.10546875 -0.16992188 0.095214844
-0.12451172 -0.140625 0.041503906 0.17285156 0.14941406 0.12597656 0.16015625 -0.06689453
-0.010314941 -0.027832031 0.0074157715 0.123046875 -0.028320312 -0.13574219 -0.19824219 -0.025146484
-0.011962891 0.08203125 0.10644531 -0.0047912598 -0.09033203 0.012634277 0.15722656 -0.19335938
-0.008239746 -0.033935547 0.025390625 0.0087890625 -0.17675781 -0.10058594 0.20898438 -0.047851562
-0.18164062 -0.05517578 -0.13867188 0.0859375 -0.19824219 0.06542969 -0.072753906 -0.16113281
-0.02368164 -0.099609375 -0.043945312 0.041748047 0.099121094 0.028930664 -0.09375 -0.013427734
0.099609375 0.088378906 0.023803711 -0.12890625 -0.09423828 -0.12451172 -0.03881836 -0.016235352
-0.15429688 0.0859375 0.16796875 -0.02319336 0.14355469 0.037841797 0.033447266 0.068847656
-0.11328125 0.003692627 -0.01965332 0.16015625 -0.140625 0.16992188 0.07128906 0.19335938
-0.024658203 -0.08886719 0.01953125 -0.09472656 -0.013793945 -0.056884766 -0.16894531 -0.13378906
0.17773438 0.14160156 -0.09765625 0.022460938 0.12695312 -0.12695312 0.13671875 -0.048583984
0.091796875 0.14257812 0.107421875 -0.055908203 0.09814453 -0.15722656 -0.037109375 -0.16503906
-0.13671875 0.009399414 -0.036132812 0.1328125 -0.1640625 -0.06933594 -0.025146484 -0.15625
0.16796875 0.071777344 -0.044433594 0.026855469 0.18457031 0.00579834 0.019042969 0.12597656
0.027954102 -0.041259766 0.009887695 -0.07128906 -0.076660156 -0.068359375 0.16601562 0.057373047
0.104003906 0.017822266 0.110839844 0.13671875 0.15039062 -0.032470703 -0.072753906 -0.16601562
-0.067871094 0.0008468628 -0.059326172 -0.020263672 0.07128906 -0.022705078 0.07324219 0.008178711
0.092285156 -0.052490234 -0.049072266 0.09375 0.15332031 -0.10595703 -0.064941406 0.006652832
-0.16113281 -0.14355469 0.15234375 -0.08984375 0.00039100647 0.03112793 -0.0390625 0.016479492
0.020629883 -0.14648438 0.091796875 -0.078125 -0.0016098022 0.11621094 -0.15722656 0.18261719
-0.17675781 -0.12011719 -0.1484375 -0.019165039 -0.17089844 -0.11425781 0.011047363 -0.010925293
-0.10644531 0.09326172 0.11376953 -0.07373047 0.018188477 0.16015625 -0.055908203 0.044677734
0.15039062 -0.057617188 -0.10205078 0.13867188 0.07763672 -0.0027160645 -0.076660156 0.080078125
-0.068359375 0.17480469 0.123046875 -0.10546875 -0.09082031 0.02734375 0.08935547 -0.123046875
0.014404297 0.010253906 -0.011291504 -0.0107421875 0.17382812 -0.17089844 -0.08251953 0.11767578
0.07421875 0.16210938 -0.00025558472 0.16308594 -0.10205078 0.14550781 0.15234375 -0.0107421875
0.002166748 0.16503906 -0.061279297 0.16894531 0.05834961 0.091796875 -0.044189453 0.125
-0.109375 -0.15136719 0.024780273 0.123535156 0.008850098 -0.123535156 0.10253906 0.15820312
0.16015625 -0.13378906 -0.11621094 0.0390625 0.0024719238 -0.060546875 0.15917969 0.10107422
-0.020141602 0.15917969 -0.026367188 0.13085938 0.052978516 -0.15039062 0.036132812 0.024536133
00000000: cabd 51bc 903d e4bd 2d3e a6bd b03c 253e
00000010: 203d d13c 0d3d 0e3e 2abe d83d 2ebe c33d
00000020: ffbd 10be 2a3d 313e 193e 013e 243e 89bd
00000030: 29bc e4bc f33b fc3d e8bc 0bbe 4bbe cebc
00000040: 44bc a83d da3d 9dbb b9bd 4f3c 213e 46be
00000050: 07bc 0bbd d03c 103c 35be cebd 563e 44bd
00000060: 3abe 62bd 0ebe b03d 4bbe 863d 95bd 25be
00000070: c2bc ccbd 34bd 2b3d cb3d ed3c c0bd 5cbc
00000080: cc3d b53d c33c 04be c1bd ffbd 1fbd 85bc
00000090: 1ebe b03d 2c3e bebc 133e 1b3d 093d 8d3d
000000a0: e8bd 723b a1bc 243e 10be 2e3e 923d 463e
000000b0: cabc b6bd a03c c2bd 62bc 69bd 2dbe 09be
000000c0: 363e 113e c8bd b83c 023e 02be 0c3e 47bd
000000d0: bc3d 123e dc3d 65bd c93d 21be 18bd 29be
000000e0: 0cbe 1a3c 14bd 083e 28be 8ebd cebc 20be
000000f0: 2c3e 933d 36bd dc3c 3d3e be3b 9c3c 013e
00000100: e53c 29bd 223c 92bd 9dbd 8cbd 2a3e 6b3d
00000110: d53d 923c e33d 0c3e 1a3e 05bd 95bd 2abe
00000120: 8bbd 5e3a 73bd a6bc 923d babc 963d 063c
00000130: bd3d 57bd 49bd c03d 1d3e d9bd 85bd da3b
00000140: 25be 13be 1c3e b8bd cd39 ff3c 20bd 873c
00000150: a93c 16be bc3d a0bd d3ba ee3d 21be 3b3e
00000160: 35be f6bd 18be 9dbc 2fbe eabd 353c 33bc
00000170: dabd bf3d e93d 97bd 953c 243e 65bd 373d
00000180: 1a3e 6cbd d1bd 0e3e 9f3d 32bb 9dbd a43d
00000190: 8cbd 333e fc3d d8bd babd e03c b73d fcbd
000001a0: 6c3c 283c 39bc 30bc 323e 2fbe a9bd f13d
000001b0: 983d 263e 86b9 273e d1bd 153e 1c3e 30bc
000001c0: 0e3b 293e 7bbd 2d3e 6f3d bc3d 35bd 003e
000001d0: e0bd 1bbe cb3c fd3d 113c fdbd d23d 223e
000001e0: 243e 09be eebd 203d 223b 78bd 233e cf3d
000001f0: a5bc 233e d8bc 063e 593d 1abe 143d c93c

block.mlp.fc1.bias bf16 [64]
0.05908203 -0.05078125 -0.056152344 -0.13867188 -0.13085938 -0.04248047 0.12890625 -0.16015625
0.06640625 -0.061279297 0.11230469 -0.16308594 0.03466797 0.012817383 0.05908203 0.09765625
0.022705078 -0.09375 0.107910156 -0.015625 -0.0041503906 0.1328125 0.07421875 -0.0002822876
-0.16992188 0.020141602 0.0043640137 0.14550781 -0.080566406 -0.048095703 -0.04638672 0.115722656
0.15234375 0.030151367 -0.016601562 -0.05053711 -0.05102539 -0.078125 -0.14941406 0.16503906
-0.13378906 -0.09375 -0.03955078 -0.040771484 -0.012878418 -0.060302734 -0.026489258 0.14355469
-0.171875 0.026245117 -0.044189453 0.11425781 0.005126953 -0.026000977 0.13964844 -0.0625
0.14746094 0.13867188 -0.16894531 -0.020751953 0.17675781 0.1640625 -0.13964844 -0.10107422
00000000: 723d 50bd 66bd 0ebe 06be 2ebd 043e 24be
00000010: 883d 7bbd e63d 27be 0e3d 523c 723d c83d
00000020: ba3c c0bd dd3d 80bc 88bb 083e 983d 94b9
00000030: 2ebe a53c 8f3b 153e a5bd 45bd 3ebd ed3d
00000040: 1c3e f73c 88bc 4fbd 51bd a0bd 19be 293e
00000050: 09be c0bd 22bd 27bd 53bc 77bd d9bc 133e
00000060: 30be d73c 35bd ea3d a83b d5bc 0f3e 80bd
00000070: 173e 0e3e 2dbe aabc 353e 283e 0fbe cfbd

block.mlp.fc2.weight bf16 [32, 64]
0.10839844 0.107910156 -0.017700195 0.09033203 -0.125 0.09033203 0.09423828 -0.038330078
0.080566406 -0.021362305 -0.034179688 0.012634277 -0.083984375 -0.083984375 0.13769531 -0.025878906
0.09863281 -0.07470703 0.020019531 0.05078125 -0.099121094 0.10888672 -0.07324219 0.06591797
-0.06640625 -0.043945312 0.12988281 -0.09082031 0.018920898 -0.12402344 -0.076171875 -0.039794922
0.080078125 -0.021972656 -0.0048217773 -0.01586914 -0.068847656 0.06689453 -0.040527344 0.008911133
0.0001296997 0.09765625 -0.026733398 0.10498047 0.006591797 -0.015991211 0.040771484 -0.032470703
0.07373047 -0.018188477 -0.09667969 -0.056152344 0.064941406 0.12890625 -0.119628906 0.03125
-0.02758789 0.0021362305 0.1171875 0.119140625 0.0546875 -0.002166748 -0.06982422 0.012023926
-0.016235352 0.03173828 0.071777344 -0.07080078 0.12792969 -0.035888672 0.11425781 -0.07763672
-0.095703125 -0.122558594 0.11376953 -0.06347656 -0.05908203 0.07080078 0.02734375 0.045898438
0.061035156 -0.021118164 -0.045898438 -0.05126953 -0.045410156 0.06201172 -0.056152344 0.049072266
0.10839844 -0.014160156 0.091308594 -0.09814453 -0.06542969 -0.039794922 0.022216797 0.10888672
-0.051757812 -0.11425781 -0.125 -0.010925293 -0.09472656 -0.03515625 0.056884766 -0.053222656
-0.028198242 -0.092285156 0.067871094 -0.068359375 -0.024169922 0.060058594 -0.0058288574 -0.09667969
0.045898438 -0.11425781 -0.0037384033 -0.06298828 -0.12988281 0.07910156 -0.053955078 0.10888672
-0.020751953 0.016235352 -0.040039062 -0.011352539 0.048583984 0.055664062 -0.06738281 0.037841797
-0.021362305 0.057128906 -0.030883789 -0.092285156 -0.08642578 0.09716797 -0.114746094 0.07714844
0.09033203 0.08642578 -0.0625 -0.122558594 0.080078125 -0.083496094 -0.026733398 0.10449219
0.11767578 0.0056762695 0.09472656 0.05883789 -0.0087890625 -0.057373047 0.03930664 -0.11767578
-0.076171875 -0.055419922 -0.11669922 -0.07519531 -0.03955078 0.08251953 0.0076293945 -0.14160156
-0.115234375 -0.09716797 0.06591797 0.030151367 0.057128906 -0.064453125 -0.0064086914 -0.09082031
0.0703125 0.099609375 0.12792969 -0.016601562 0.11376953 0.026611328 0.072753906 -0.0027923584
0.030151367 -0.044921875 0.119140625 -0.01184082 -0.075683594 0.0012054443 0.087890625 -0.07519531
-0.067871094 -0.052490234 0.12060547 0.08203125 0.029418945 0.06738281 -0.11816406 0.060302734
-0.09375 0.032714844 -0.060058594 0.067871094 0.04321289 -0.01574707 0.08984375 -0.015991211
0.008972168 -0.06689453 -0.12060547 -0.022338867 -0.09667969 -0.095214844 0.064941406 -0.03955078
0.07763672 0.020507812 0.012817383 -0.109375 0.060058594 -0.05102539 -0.087890625 0.10595703
-0.075683594 0.056396484 -0.043701172 -0.068359375 -0.06225586 0.11328125 0.07470703 -0.12597656
-0.110839844 0.0009727478 0.10498047 0.12597656 -0.063964844 -0.08935547 -0.056396484 -0.072265625
0.114746094 0.0859375 -0.06542969 -0.036132812 -0.06225586 0.0062561035 -0.05908203 -0.10205078
0.071777344 0.02331543 -0.037353516 0.10449219 -0.060546875 -0.02758789 -0.055419922 -0.0625
-0.08496094 0.08496094 0.11279297 0.08300781 -0.032958984 -0.016601562 -0.11328125 0.083496094
00000000: de3d dd3d 91bc b93d 00be b93d c13d 1dbd
00000010: a53d afbc 0cbd 4f3c acbd acbd 0d3e d4bc
00000020: ca3d 99bd a43c 503d cbbd df3d 96bd 873d
00000030: 88bd 34bd 053e babd 9b3c febd 9cbd 23bd
00000040: a43d b4bc 9ebb 82bc 8dbd 893d 26bd 123c
00000050: 0839 c83d dbbc d73d d83b 83bc 273d 05bd
00000060: 973d 95bc c6bd 66bd 853d 043e f5bd 003d
00000070: e2bc 0c3b f03d f43d 603d 0ebb 8fbd 453c
00000080: 85bc 023d 933d 91bd 033e 13bd ea3d 9fbd
00000090: c4bd fbbd e93d 82bd 72bd 913d e03c 3c3d
000000a0: 7a3d adbc 3cbd 52bd 3abd 7e3d 66bd 493d
000000b0: de3d 68bc bb3d c9bd 86bd 23bd b63c df3d
000000c0: 54bd eabd 00be 33bc c2bd 10bd 693d 5abd
000000d0: e7bc bdbd 8b3d 8cbd c6bc 763d bfbb c6bd
000000e0: 3c3d eabd 75bb 81bd 05be a23d 5dbd df3d
000000f0: aabc 853c 24bd 3abc 473d 643d 8abd 1b3d
00000100: afbc 6a3d fdbc bdbd b1bd c73d ebbd 9e3d
00000110: b93d b13d 80bd fbbd a43d abbd dbbc d63d
00000120: f13d ba3b c23d 713d 10bc 6bbd 213d f1bd
00000130: 9cbd 63bd efbd 9abd 22bd a93d fa3b 11be
00000140: ecbd c7bd 873d f73c 6a3d 84bd d2bb babd
00000150: 903d cc3d 033e 88bc e93d da3c 953d 37bb
00000160: f73c 38bd f43d 42bc 9bbd 9e3a b43d 9abd
00000170: 8bbd 57bd f73d a83d f13c 8a3d f2bd 773d
00000180: c0bd 063d 76bd 8b3d 313d 81bc b83d 83bc
00000190: 133c 89bd f7bd b7bc c6bd c3bd 853d 22bd
000001a0: 9f3d a83c 523c e0bd 763d 51bd b4bd d93d
000001b0: 9bbd 673d 33bd 8cbd 7fbd e83d 993d 01be
000001c0: e3bd 7f3a d73d 013e 83bd b7bd 67bd 94bd
000001d0: eb3d b03d 86bd 14bd 7fbd cd3b 72bd d1bd
000001e0: 933d bf3c 19bd d63d 78bd e2bc 63bd 80bd
000001f0: aebd ae3d e73d aa3d 07bd 88bc e8bd ab3d

block.mlp.fc2.bias bf16 [32]
0.018066406 -0.057617188 -0.09472656 0.123535156 0.10205078 -0.059814453 -0.075683594 -0.11328125
0.03466797 -0.011108398 0.040039062 0.030883789 -0.037109375 -0.052734375 0.076660156 0.03112793
-0.041748047 0.10644531 -0.091796875 0.03881836 0.060791016 -0.099609375 -0.015014648 -0.020141602
-0.07519531 -0.08642578 -0.025878906 0.111816406 -0.059570312 0.103515625 0.033935547 0.068847656
00000000: 943c 6cbd c2bd fd3d d13d 75bd 9bbd e8bd
00000010: 0e3d 36bc 243d fd3c 18bd 58bd 9d3d ff3c
00000020: 2bbd da3d bcbd 1f3d 793d ccbd 76bc a5bc
00000030: 9abd b1bd d4bc e53d 74bd d43d 0b3d 8d3d

proj2.0.weight bf16 [32, 32, 3, 3]
-0.046142578 -0.030761719 -0.0014572144 -0.036865234 0.01953125 -0.0069274902 0.024902344 -0.026977539
-0.04272461 -0.057617188 -0.0014648438 -0.049316406 -0.024902344 0.026245117 -0.026489258 -0.0154418945
-0.052978516 0.0030212402 -0.01953125 0.032714844 0.047851562 0.0015182495 -0.0025939941 0.033691406
0.05419922 0.053710938 -0.0054016113 0.08544922 0.06689453 -0.0043029785 0.06225586 0.036132812
0.06738281 0.048828125 0.0703125 -0.026000977 0.007232666 -0.048095703 0.028686523 -0.0026397705
0.036132812 0.053466797 -0.022094727 0.033203125 0.02722168 0.059326172 0.003692627 -0.0019226074
0.01965332 -0.01953125 0.045410156 -0.03515625 0.020019531 -0.041015625 0.010253906 -0.056396484
0.029052734 0.02355957 -0.008605957 -0.056396484 -0.02319336 -0.052001953 -0.040039062 -0.025756836
-0.05078125 0.03515625 0.028442383 -0.052001953 -0.0050354004 -0.044189453 0.018676758 -0.0039367676
0.036865234 0.061767578 -0.0087890625 0.052978516 -0.0006790161 -0.0023040771 0.032958984 -0.038330078
-0.0018539429 0.05517578 -0.037597656 0.030761719 0.044921875 0.060302734 0.018798828 0.025756836
0.059326172 -0.025390625 0.05517578 -0.0107421875 0.06542969 -0.029052734 -0.024902344 -0.0060424805
0.002670288 0.033691406 -0.025756836 0.007293701 -0.0154418945 -0.0071411133 0.02709961 -0.078125
0.008483887 0.013061523 0.06347656 0.05493164 -0.02709961 -0.06298828 -0.03540039 -0.029663086
0.037353516 -0.041748047 0.026855469 -0.009338379 -0.014404297 0.052001953 0.0034942627 -0.01373291
-0.020263672 -0.036376953 -0.025512695 0.010009766 0.036132812 0.004211426 0.049560547 -0.046142578
-0.0005455017 0.03515625 0.021118164 0.033935547 -0.010498047 -0.05078125 0.029418945 0.041748047
0.084472656 0.03540039 0.08154297 -0.016967773 0.05029297 -0.022338867 -0.03881836 0.061767578
0.01550293 0.015991211 -0.057128906 -0.07128906 -0.032470703 -0.016357422 -0.017578125 0.03491211
-0.030151367 -0.03173828 0.048828125 0.0154418945 -0.05419922 0.04736328 -0.040527344 0.030151367
0.041503906 0.0013961792 0.0045166016 0.041015625 0.056152344 0.032470703 -0.0076904297 0.017333984
-0.047851562 -0.04248047 -0.063964844 -0.0053710938 -0.080078125 -0.06640625 0.026123047 0.028320312
0.010681152 -0.05126953 -0.061279297 -0.026245117 -0.0051574707 -0.025146484 -0.002746582 0.02734375
-0.057617188 -0.06591797 0.0018615723 0.025634766 -0.010131836 0.017578125 0.027954102 0.01940918
0.010620117 0.03955078 0.0004234314 0.043701172 -0.00390625 0.052001953 -0.0859375 0.005065918
-0.009338379 -0.08105469 -0.08984375 -0.08154297 -0.014831543 -0.050048828 0.0060424805 -0.033203125
-0.010803223 0.03564453 0.011352539 -0.047851562 -0.06347656 -0.03466797 -0.008728027 -0.0390625
-0.064453125 0.0012054443 -0.03564453 -0.052001953 -0.033691406 0.021484375 -0.015197754 -0.07128906
0.002243042 -0.07128906 -0.040527344 -0.030883789 0.045898438 0.025634766 -0.014953613 -0.05029297
0.011413574 -0.035888672 0.02355957 0.0058288574 -0.0053710938 -0.03881836 -0.0012054443 0.02734375
-0.0076904297 -0.021728516 -0.039794922 0.032714844 0.0625 -0.008239746 0.052734375 0.018920898
0.0013122559 -0.0146484375 -0.05053711 0.018432617 0.041992188 -0.049316406 -0.0050354004 -0.07910156
00000000: 3dbd fcbc bfba 17bd a03c e3bb cc3c ddbc
00000010: 2fbd 6cbd c0ba 4abd ccbc d73c d9bc 7dbc
00000020: 59bd 463b a0bc 063d 443d c73a 2abb 0a3d
00000030: 5e3d 5c3d b1bb af3d 893d 8dbb 7f3d 143d
00000040: 8a3d 483d 903d d5bc ed3b 45bd eb3c 2dbb
00000050: 143d 5b3d b5bc 083d df3c 733d 723b fcba
00000060: a13c a0bc 3a3d 10bd a43c 28bd 283c 67bd
00000070: ee3c c13c 0dbc 67bd bebc 55bd 24bd d3bc
00000080: 50bd 103d e93c 55bd a5bb 35bd 993c 81bb
00000090: 173d 7d3d 10bc 593d 32ba 17bb 073d 1dbd
000000a0: f3ba 623d 1abd fc3c 383d 773d 9a3c d33c
000000b0: 733d d0bc 623d 30bc 863d eebc ccbc c6bb
000000c0: 2f3b 0a3d d3bc ef3b 7dbc eabb de3c a0bd
000000d0: 0b3c 563c 823d 613d debc 81bd 11bd f3bc
000000e0: 193d 2bbd dc3c 19bc 6cbc 553d 653b 61bc
000000f0: a6bc 15bd d1bc 243c 143d 8a3b 4b3d 3dbd
00000100: 0fba 103d ad3c 0b3d 2cbc 50bd f13c 2b3d
00000110: ad3d 113d a73d 8bbc 4e3d b7bc 1fbd 7d3d
00000120: 7e3c 833c 6abd 92bd 05bd 86bc 90bc 0f3d
00000130: f7bc 02bd 483d 7d3c 5ebd 423d 26bd f73c
00000140: 2a3d b73a 943b 283d 663d 053d fcbb 8e3c
00000150: 44bd 2ebd 83bd b0bb a4bd 88bd d63c e83c
00000160: 2f3c 52bd 7bbd d7bc a9bb cebc 34bb e03c
00000170: 6cbd 87bd f43a d23c 26bc 903c e53c 9f3c
00000180: 2e3c 223d de39 333d 80bb 553d b0bd a63b
00000190: 19bc a6bd b8bd a7bd 73bc 4dbd c63b 08bd
000001a0: 31bc 123d 3a3c 44bd 82bd 0ebd 0fbc 20bd
000001b0: 84bd 9e3a 12bd 55bd 0abd b03c 79bc 92bd
000001c0: 133b 92bd 26bd fdbc 3c3d d23c 75bc 4ebd
000001d0: 3b3c 13bd c13c bf3b b0bb 1fbd 9eba e03c
000001e0: fcbb b2bc 23bd 063d 803d 07bc 583d 9b3c
000001f0: ac3a 70bc 4fbd 973c 2c3d 4abd a5bb a2bd

proj2.0.bias bf16 [32]
0.022338867 0.008361816 0.022460938 -0.016723633 -0.063964844 -0.049072266 -0.03540039 -0.0087890625
-0.05883789 0.0703125 -0.014404297 -0.023803711 -0.016967773 0.007232666 -0.056152344 0.057128906
-0.048339844 -0.052246094 -0.013061523 0.05810547 -0.033203125 0.0012435913 0.0029754639 0.032958984
0.033203125 0.03564453 -0.028320312 0.0234375 -0.04638672 0.010986328 -0.040283203 0.052978516
00000000: b73c 093c b83c 89bc 83bd 49bd 11bd 10bc
00000010: 71bd 903d 6cbc c3bc 8bbc ed3b 66bd 6a3d
00000020: 46bd 56bd 56bc 6e3d 08bd a33a 433b 073d
00000030: 083d 123d e8bc c03c 3ebd 343c 25bd 593d

proj2.2.weight bf16 [1, 32, 3, 3]
0.06225586 0.018920898 0.060546875 0.02746582 -0.049560547 -0.027832031 0.003967285 -0.055908203
0.06982422 -0.040527344 0.05419922 0.068847656 0.036132812 -0.041015625 0.04272461 0.029296875
0.03466797 0.03125 0.053222656 0.033447266 0.04663086 -0.06591797 0.040771484 -0.0070495605
-0.034423828 -0.03125 -0.059814453 0.059814453 -0.05126953 0.0234375 0.033935547 -0.008605957
0.028686523 0.037109375 -0.06225586 -0.032226562 -0.046142578 -0.014953613 -0.045410156 0.0079956055
-0.076660156 -0.017944336 0.012756348 -0.06689453 -0.009033203 -0.05419922 0.057617188 -0.014953613
0.0008621216 -0.049316406 -0.005706787 -0.02746582 -0.035888672 -0.05883789 -0.049316406 0.05444336
0.053466797 -0.05053711 0.0138549805 0.036865234 0.05126953 -0.01928711 -0.0625 0.016601562
-0.05859375 -0.061523438 0.038085938 -0.016967773 0.04272461 0.03125 0.016601562 0.031982422
-0.083496094 0.052246094 0.064941406 -0.047607422 0.095703125 0.0078125 -0.05419922 0.064453125
0.07080078 0.03564453 0.025634766 0.035888672 0.032958984 0.055664062 -0.0020141602 -0.036376953
0.043701172 0.05078125 0.032958984 0.034423828 -0.07763672 0.078125 0.11035156 -0.042236328
0.02319336 0.067871094 -0.072265625 0.036376953 -0.028564453 0.015136719 -0.068359375 0.010375977
0.009521484 0.031982422 0.01965332 0.028320312 -0.015625 0.044433594 -0.008422852 -0.044189453
-0.02758789 0.011047363 -0.060791016 -0.05834961 -0.026245117 -0.039794922 0.043945312 -0.0029754639
-0.06640625 0.056396484 0.061523438 -0.037841797 -0.07714844 -0.022583008 -0.030395508 -0.03112793
0.0018920898 -0.025024414 -0.06298828 0.004058838 -0.060058594 -0.03112793 0.026611328 0.06591797
0.03540039 0.011657715 0.041259766 -0.025268555 -0.032958984 -0.043945312 -0.083496094 -0.07519531
-0.048339844 0.0036010742 -0.009887695 0.01586914 -0.023071289 0.020629883 0.04638672 0.056396484
-0.03466797 0.03930664 0.03100586 -0.06225586 0.014831543 0.020019531 -0.053222656 0.0074768066
0.03930664 0.03149414 0.060791016 0.042236328 -0.01361084 0.0022735596 -0.03491211 -0.06225586
0.03125 0.02722168 -0.0006904602 0.03955078 -0.061279297 -0.015319824 -0.05810547 0.016357422
0.026367188 -0.032226562 0.029052734 0.07763672 -0.03881836 0.0069274902 -0.0076293945 -0.017456055
-0.05908203 0.013427734 -0.041992188 -0.02709961 -0.05444336 -0.022094727 0.04736328 0.028930664
-0.020263672 0.03564453 0.048095703 0.045166016 -0.020141602 0.038085938 -0.0065612793 0.022094727
0.046142578 0.045654297 0.033935547 0.053222656 0.037353516 0.014709473 -0.037841797 0.05126953
0.011352539 -0.041992188 -0.023925781 -0.06347656 -0.0234375 -0.040771484 -0.0024414062 -0.0010147095
0.040527344 0.024414062 0.010864258 0.021240234 -0.059570312 -0.041748047 -0.04321289 0.037109375
0.02319336 0.018676758 -0.011291504 0.029785156 -0.060791016 -0.009155273 0.00579834 0.04711914
0.03125 0.021850586 0.057861328 -0.026123047 0.059814453 0.056884766 0.01965332 0.060058594
0.04663086 0.03857422 0.024902344 -0.03515625 -0.026000977 -0.008117676 -0.052978516 -0.07861328
0.0078125 -0.06591797 -0.057128906 -0.057617188 -0.040283203 -0.03100586 0.010253906 0.024047852
00000000: 7f3d 9b3c 783d e13c 4bbd e4bc 823b 65bd
00000010: 8f3d 26bd 5e3d 8d3d 143d 28bd 2f3d f03c
00000020: 0e3d 003d 5a3d 093d 3f3d 87bd 273d e7bb
00000030: 0dbd 00bd 75bd 753d 52bd c03c 0b3d 0dbc
00000040: eb3c 183d 7fbd 04bd 3dbd 75bc 3abd 033c
00000050: 9dbd 93bc 513c 89bd 14bc 5ebd 6c3d 75bc
00000060: 623a 4abd bbbb e1bc 13bd 71bd 4abd 5f3d
00000070: 5b3d 4fbd 633c 173d 523d 9ebc 80bd 883c
00000080: 70bd 7cbd 1c3d 8bbc 2f3d 003d 883c 033d
00000090: abbd 563d 853d 43bd c43d 003c 5ebd 843d
000000a0: 913d 123d d23c 133d 073d 643d 04bb 15bd
000000b0: 333d 503d 073d 0d3d 9fbd a03d e23d 2dbd
000000c0: be3c 8b3d 94bd 153d eabc 783c 8cbd 2a3c
000000d0: 1c3c 033d a13c e83c 80bc 363d 0abc 35bd
000000e0: e2bc 353c 79bd 6fbd d7bc 23bd 343d 43bb
000000f0: 88bd 673d 7c3d 1bbd 9ebd b9bc f9bc ffbc
00000100: f83a cdbc 81bd 853b 76bd ffbc da3c 873d
00000110: 113d 3f3c 293d cfbc 07bd 34bd abbd 9abd
00000120: 46bd 6c3b 22bc 823c bdbc a93c 3e3d 673d
00000130: 0ebd 213d fe3c 7fbd 733c a43c 5abd f53b
00000140: 213d 013d 793d 2d3d 5fbc 153b 0fbd 7fbd
00000150: 003d df3c 35ba 223d 7bbd 7bbc 6ebd 863c
00000160: d83c 04bd ee3c 9f3d 1fbd e33b fabb 8fbc
00000170: 72bd 5c3c 2cbd debc 5fbd b5bc 423d ed3c
00000180: a6bc 123d 453d 393d a5bc 1c3d d7bb b53c
00000190: 3d3d 3b3d 0b3d 5a3d 193d 713c 1bbd 523d
000001a0: 3a3c 2cbd c4bc 82bd c0bc 27bd 20bb 85ba
000001b0: 263d c83c 323c ae3c 74bd 2bbd 31bd 183d
000001c0: be3c 993c 39bc f43c 79bd 16bc be3b 413d
000001d0: 003d b33c 6d3d d6bc 753d 693d a13c 763d
000001e0: 3f3d 1e3d cc3c 10bd d5bc 05bc 59bd a1bd
000001f0: 003c 87bd 6abd 6cbd 25bd febc 283c c53c
